CNN Activity/CNN_Fruits/model.tflite (tflite, 148880 bytes, 10 tensors)

arith.constant f4 [32]
0	0xbbe2ce7d	-0.006921588
1	0xbbfec0fb	-0.00777447
2	0xbcde4fbb	-0.027137628
3	0x3b0bb2f5	0.0021316383
4	0xbbc4afc0	-0.0060023963
5	0x00000000	0.0
6	0x3c66415e	0.014053671
7	0x3c1fb55e	0.009747831
8	0xbbe4c7c0	-0.00698182
9	0x3c039c04	0.0080328025
10	0xbc6253f9	-0.013813966
11	0xbbc4c61f	-0.006005063
12	0xbbc3dbc0	-0.005977124
13	0xbbdea5c4	-0.006794663
14	0xba11e426	-0.0005565308
15	0xbcb1fc98	-0.021726891
16	0x3cb37ba2	0.021909539
17	0x3c20ea3f	0.009821474
18	0x3bad6b7f	0.0052923555
19	0x3cd9ff84	0.026611097
20	0xbc2404c2	-0.0100109
21	0xbb8d1e7e	-0.0043066135
22	0xbbba5213	-0.0056860535
23	0x3c96a3f6	0.01838873
24	0xbc096809	-0.00838662
25	0xbc0a4bfd	-0.008440969
26	0x00000000	0.0
27	0x3cc3ba26	0.023892473
28	0xbc381f91	-0.011237995
29	0x3c8e8f34	0.017402269
30	0x3c0d9931	0.008642481
31	0x3c3e8a53	0.011629659

arith.constant1 f4 [32]
0	0x3cf68b34	0.030095674
1	0xbb97416c	-0.004615953
2	0x3b49dcde	0.0030801813
3	0x3c576db5	0.013148715
4	0xbb4d7050	-0.003134746
5	0xbc70ff5e	-0.014709322
6	0xba811f4c	-0.0009851246
7	0x3c312a8b	0.010813366
8	0xbceb2c70	-0.028707713
9	0x3b81fa8a	0.003966634
10	0x3c96518b	0.01834943
11	0xbce3250e	-0.02772763
12	0x3b28d05b	0.0025758955
13	0xbbfb9c9c	-0.0076785814
14	0xbca374a6	-0.019953083
15	0xbce64c51	-0.028112562
16	0xbc3e8db6	-0.011630466
17	0xbbf53e9c	-0.0074842703
18	0x3ce76283	0.028245216
19	0xbc89147b	-0.016733399
20	0x3cb610d7	0.022224827
21	0xbb9646d5	-0.0045860806
22	0xbcb2b2d4	-0.021813788
23	0x3c79c1c3	0.01524395
24	0xbc381208	-0.011234768
25	0x3c3afaf5	0.011412372
26	0x3c37a9ac	0.0112098865
27	0xbcec0bea	-0.028814275
28	0xbb013012	-0.001971249
29	0x00000000	0.0
30	0xbcff9ab2	-0.031201694
31	0xbc276ae5	-0.010218357

arith.constant2 f4 [32]
0	0xbd51fd7d	-0.051267136
1	0x3aed401f	0.0018100775
2	0x3cd00a7d	0.025395626
3	0xbc33364e	-0.01093824
4	0xbd0f289c	-0.034950837
5	0xbcd1cae9	-0.02560945
6	0x3bf1d5b0	0.00738021
7	0x3be6b396	0.0070404513
8	0xbb768ef0	-0.0037621818
9	0x3c8e5209	0.017373102
10	0x3b9bac67	0.0047507766
11	0x3d37b2cf	0.04484826
12	0xbc44959f	-0.011998563
13	0xbc236beb	-0.00997446
14	0x3bec1846	0.007205042
15	0xbcf4ba58	-0.029874012
16	0xbb5ddda7	-0.003385404
17	0xbb315861	-0.0027060735
18	0x3b954139	0.0045548943
19	0xbbc177b7	-0.0059041637
20	0x3c042608	0.008065708
21	0xbb3c9bd0	-0.0028779395
22	0x3ac1cd4a	0.0014785912
23	0xbd44b55d	-0.048024524
24	0x00000000	0.0
25	0xbcec44ad	-0.02884134
26	0x3c5907ce	0.01324649
27	0xbbbbb0dc	-0.0057278704
28	0xbc8c994d	-0.017162943
29	0x3ba812d7	0.005129199
30	0x3cd0fa99	0.02551012
31	0xbd109f67	-0.035308268

arith.constant3 f4 [32, 3, 3, 32]
0	0xbd8030b9	-0.06259293
1	0xbdcbd24e	-0.09952222
2	0x3da9e99f	0.08296513
3	0x3caaf1d4	0.020867266
4	0x3d3ce7bc	0.046119437
5	0xbcfc21e4	-0.030777879
6	0xbd36cd1b	-0.044629198
7	0xbd9ce922	-0.07661654
8	0xbcbf688f	-0.023365287
9	0xbd48bee5	-0.049010176
10	0x3d2d6cc9	0.042340074
11	0xbd8afaf7	-0.06786149
12	0x3c978cca	0.01849975
13	0xbc55a5c0	-0.013040006
14	0xbd22d5dd	-0.039754737
15	0x3b722b94	0.0036952244
16	0x3d1cc780	0.038276196
17	0x3db319db	0.08745166
18	0xbdc95b3d	-0.098318554
19	0xbd314ec5	-0.04328801
20	0x3cd9c2e5	0.02658219
21	0x3d06c00e	0.032898
22	0x3dc4101d	0.09573386
23	0x3d32acd0	0.043621838
24	0x3cb4f9ec	0.022091828
25	0xbdb849ca	-0.08998449
26	0x3d7ff882	0.062492855
27	0xbdc50a5a	-0.09621115
28	0xbd9cb27e	-0.07651232
29	0xbdbd9ede	-0.09258817
30	0xbd987cca	-0.074456766
31	0xbdc836ba	-0.09776063
32	0x3cddfc5a	0.02709787
33	0xba5a5300	-0.0008328408
34	0xbceb92df	-0.028756557
35	0x3c9921a5	0.0186928
36	0xbdc3eb31	-0.095663436
37	0xbcef858b	-0.029238483
38	0x3d80842d	0.062752105
39	0xbdb2b738	-0.087263525
40	0x3b35278c	0.002764198
41	0x3d0da93b	0.03458522
42	0xbcbb7a9c	-0.022885613
43	0xbd9315da	-0.07181902
44	0xbbd716c8	-0.006563995
45	0x3dbd1a7e	0.092335686
46	0x3d702617	0.058630075
47	0xbd68ed99	-0.056867216
48	0x3d306c70	0.043072164
49	0xbd6bd21d	-0.057573427
50	0x3d4ff386	0.05076935
51	0xbd36134a	-0.04445199
52	0xbd1fb47d	-0.038990486
53	0x3d1ce48f	0.038303908
54	0xbca0984f	-0.019603876
55	0xbd0c6078	-0.034271687
56	0xbdd3f81f	-0.1035006
57	0xbd35993a	-0.04433558
58	0xbdb8d586	-0.09025101
59	0xbd390c84	-0.04517795
60	0x3d9f6126	0.077822015
61	0xbb8bb640	-0.0042636693
62	0xbd853a9f	-0.06505322
63	0x3d95f472	0.07322015
64	0xbda93475	-0.082619585
65	0xbcdffea8	-0.02734311
66	0x3dbd045b	0.09229346
67	0xbdc032e1	-0.093847044
68	0xbc3f08f8	-0.011659853
69	0xbdad8f5c	-0.08474609
70	0x3d51fad8	0.051264614
71	0xbc76cda2	-0.015063675
72	0xbd60e4b8	-0.054905623
73	0xbdd22f5b	-0.102629386
74	0xbd8185d4	-0.06324354
75	0x3d9bbeb4	0.07604733
76	0x3c9c60fc	0.019089215
77	0xbda38cd0	-0.07985842
78	0xbd412ea1	-0.04716361
79	0x38ce9d92	9.852195e-05
80	0xbdadba26	-0.084827706
81	0xbcd452d4	-0.025918402
82	0x3cd0d605	0.025492677
83	0xbdb9e867	-0.0907753
84	0xbc1c512f	-0.00954084
85	0x3da2a1c0	0.079410076
86	0x3d96d7d1	0.073653825
87	0x3db78526	0.08960943
88	0xbd8f7350	-0.07004416
89	0xbda0e272	-0.07855691
90	0xbda33a42	-0.07970096
91	0x3d9f0a10	0.07765591
92	0x3d85b24f	0.0652815
93	0x3d8f47b8	0.06996101
94	0xbd47090e	-0.04859262
95	0xbdc9982d	-0.09843478
96	0xbd357be8	-0.04430762
97	0xba8f3b40	-0.0010927692
98	0x3d99d26c	0.07510838
99	0x3cee6a54	0.029103436
100	0xbcfd16e4	-0.030894704
101	0xbd230fd8	-0.03981003
102	0x3d960f4d	0.07327137
103	0xbc7e421b	-0.01551869
104	0xbd0c5fbe	-0.034270994
105	0xbdc6b0f4	-0.0970172
106	0xbb58a329	-0.0033056235
107	0x3d1fe8ef	0.039040502
108	0x3d10cd39	0.035351966
109	0x3d966ef4	0.073453814
110	0x3aa0b99b	0.0012262346
111	0xbdba4acf	-0.090963
112	0xbcb736ab	-0.022364935
113	0x3d994b92	0.07485117
114	0xbd14e96c	-0.03635542
115	0xbc0a7fb6	-0.0084533
116	0xbd4e5c42	-0.050380953
117	0x3d81bf78	0.06335348
118	0xbcdf2dea	-0.027243573
119	0xbdb38deb	-0.08767303
120	0xbdc8c80a	-0.098037794
121	0xbdd2aa68	-0.10286409
122	0x3d46ac9f	0.048504468
123	0xbd0640c7	-0.03277662
124	0xbd66b6c8	-0.056326658
125	0x3cf41930	0.029797167
126	0x3d2508b7	0.040291514
127	0xbcde8d58	-0.027167007
128	0x3d35532f	0.044268783
129	0xbd1ba602	-0.038000114
130	0xbd82e462	-0.06391217
131	0xbdcf4f84	-0.10122588
132	0x3d00e7dc	0.03147112
133	0x3b373a05	0.0027958166
134	0x3d1d2b95	0.03837164
135	0xbc84e540	-0.016222596
136	0x3c54c7e6	0.012987113
137	0xbd00a4cf	-0.031407174
138	0x3d00d49b	0.031452756
139	0x3bce4b06	0.0062955646
140	0x3db9edaf	0.09078538
141	0x3d4d65e0	0.050145984
142	0x3ce235b4	0.027613498
143	0xbd3792a9	-0.0448176
144	0xbdb84199	-0.08996887
145	0xbd84f483	-0.064919494
146	0x3d03cd0e	0.032177977
147	0xbcc70185	-0.024292717
148	0xbdbc4805	-0.09193424
149	0x3d7592c6	0.059954427
150	0xbd793553	-0.06084187
151	0x3d7d8ef9	0.061903927
152	0xbd245307	-0.040118244
153	0xbd9c361d	-0.07627509
154	0xbd9762b7	-0.07391875
155	0x3ce83c30	0.028349012
156	0xbd695236	-0.056963168
157	0xbdcf389a	-0.10118218
158	0x3d968f3a	0.07351537
159	0xbccd3bde	-0.025052961
160	0xbc1d71bb	-0.009609635
161	0xbd79cebf	-0.060988184
162	0xbdd1d433	-0.10245552
163	0xbdb4c312	-0.08826269
164	0xbb16cac0	-0.0023009032
165	0xbbf60474	-0.007507855
166	0xbca346dd	-0.019931251
167	0x3b758dc2	0.0037468527
168	0xbdc62ec5	-0.09676889
169	0xbd9a6c3f	-0.075401776
170	0x3d8acf79	0.067778535
171	0xbc64ee23	-0.013972792
172	0xbdd5dbca	-0.10442312
173	0xbdb9e040	-0.090759754
174	0x3d706114	0.05868633
175	0xbd643b22	-0.055720456
176	0x3d1de075	0.038544137
177	0x3cd6ab2c	0.026204668
178	0x3d4f592e	0.050622158
179	0x3d1ddc1f	0.038540002
180	0xbdaebf05	-0.08532528
181	0xbdd5c312	-0.10437597
182	0xbdc14bc4	-0.09438279
183	0x3dd01b66	0.10161476
184	0x3d7ed722	0.062216885
185	0x3d5c22e3	0.053744208
186	0xbd9810c1	-0.074250706
187	0x3d50e569	0.051000033
188	0xbd56b837	-0.052421775
189	0xbdc7ed84	-0.097620994
190	0xbdc2b659	-0.09507436
191	0xbd0d68e1	-0.03452385
192	0x3d481135	0.048844535
193	0x3da8076e	0.08204542
194	0x3d91c7a5	0.07118157
195	0x3dbd4bb6	0.09242956
196	0x3b89b850	0.00420288
197	0xbcec597c	-0.028851263
198	0xbdc0c5c2	-0.09412719
199	0xbdbcb134	-0.09213486
200	0x3c0d5165	0.008625363
201	0xbc71378e	-0.014722718
202	0x3db22223	0.08697917
203	0x3d101030	0.035171688
204	0x3d98b3df	0.07456183
205	0xbd7f12d5	-0.06227382
206	0xbcd34e50	-0.025794178
207	0x3d87b586	0.0662642
208	0x3d901dd9	0.07036943
209	0xbd133934	-0.035943225
210	0x3b5e2640	0.003389731
211	0x3cc01458	0.0234472
212	0xbda8e405	-0.08246616
213	0x3d971386	0.07376771
214	0xbda1db07	-0.07903104
215	0xbda9faaf	-0.08299767
216	0x3d8ffb92	0.07030405
217	0x3d2c8041	0.0421145
218	0xbd2384a1	-0.039921407
219	0x3d903a03	0.07042315
220	0x3d00192b	0.031274002
221	0x3d2eccb4	0.04267569
222	0xbdb72b38	-0.0894379
223	0xbd8674fc	-0.06565282
224	0x3d1cc451	0.03827316
225	0xbdb64197	-0.08899229
226	0xbdc84151	-0.09778083
227	0x3db15454	0.086586624
228	0xbd814a66	-0.063130185
229	0xbd959818	-0.073044
230	0x3d8545dd	0.06507466
231	0x3db6a7b9	0.08918709
232	0xbd8057a0	-0.06266713
233	0xbdcd056a	-0.10010798
234	0x3c016c1c	0.00789931
235	0xbdce959d	-0.1008713
236	0xbd12e655	-0.035864193
237	0xbcfd8a94	-0.030949868
238	0xbc1938fe	-0.009351967
239	0x3d4b066d	0.049566675
240	0xbcb6b650	-0.02230373
241	0xbdc41fb2	-0.09576358
242	0xbd42160d	-0.04738431
243	0x3da72118	0.08160609
244	0xbdce6fb3	-0.10079899
245	0xbc1f216b	-0.009712557
246	0xbdb7a27a	-0.08966537
247	0x3d8afafd	0.067861535
248	0xbdbb27b5	-0.09138433
249	0xbcf78e5d	-0.030219251
250	0x3dbdb160	0.09262347
251	0xbc54f97f	-0.012998938
252	0x3d8e4633	0.06946983
253	0x3d198928	0.037484318
254	0x3c99c634	0.018771268
255	0x3d91e398	0.07123488

arith.constant4 f4 [32, 3, 3, 32]
0	0x3db675bd	0.089091755
1	0xbce2a384	-0.027665861
2	0xbd4f0b1b	-0.0505477
3	0xbc893ce2	-0.016752664
4	0xbbc53809	-0.006018643
5	0x3c24ca4e	0.010057999
6	0x3c5fd21d	0.013660935
7	0xbdd2adc3	-0.10287049
8	0x3ac15df9	0.0014752737
9	0x3c436e2f	0.011928125
10	0x3da7d7b6	0.081954405
11	0x3e0ea2f9	0.13929357
12	0xbcfaf7be	-0.03063571
13	0xbd861e2f	-0.06548726
14	0x3cb27a9b	0.021786978
15	0xbba9a5b8	-0.005177226
16	0x3db8addb	0.09017535
17	0xbd7329c4	-0.059366003
18	0xbdcb5661	-0.09928585
19	0xbd87a3bd	-0.066230275
20	0x3d9df866	0.07713394
21	0xbd3cdd0c	-0.046109244
22	0x3c35ae61	0.011088938
23	0xbd206d13	-0.03916652
24	0xbcae5e88	-0.02128531
25	0xbd91997d	-0.07109354
26	0xbae273ac	-0.0017276905
27	0xbd49f68f	-0.049307402
28	0x3d9a3da9	0.07531292
29	0xbd2cae0e	-0.04215818
30	0x3db2fea6	0.087399766
31	0x3d6716b6	0.056418143
32	0x3bd34bac	0.00644823
33	0x3de55761	0.11198307
34	0xbdc0e804	-0.094192535
35	0x3d878910	0.066179395
36	0x3cf6ac95	0.03011159
37	0xbc654150	-0.0139926225
38	0x3c9e9497	0.019357963
39	0x3c94e72c	0.018176638
40	0x3d571615	0.052511293
41	0x3c65ff9e	0.014037995
42	0x3d9f442f	0.07776677
43	0x3d8edbf2	0.06975545
44	0xbd46d6ac	-0.04854457
45	0xbd7a88e1	-0.061165694
46	0xbdf4dec6	-0.11956553
47	0x3d5b6947	0.053567197
48	0xbc899c1c	-0.016798072
49	0x3dd94205	0.10608295
50	0xbc9b94b0	-0.018991798
51	0x3d3100db	0.043213706
52	0x3d87899a	0.06618042
53	0xbd111746	-0.035422586
54	0x3db569b8	0.08858055
55	0x3d1c3a41	0.038141493
56	0xbd3405e7	-0.04395094
57	0x3dac3e01	0.08410264
58	0xbd840556	-0.0644633
59	0x3d83d44b	0.06436976
60	0xbd91dbfc	-0.07122037
61	0xbc4f3bdd	-0.01264855
62	0x3e0bb439	0.13642968
63	0x3ccf53bc	0.025308482
64	0xbd26c47f	-0.040714737
65	0x3bd3ef50	0.0064677373
66	0x3d1f3856	0.038872086
67	0x3da0522e	0.078281745
68	0xbd9ef5c7	-0.07761722
69	0xbd8fd0a0	-0.07022214
70	0x3d2f99df	0.042871352
71	0x3c14860f	0.009065165
72	0x3d68e942	0.056863077
73	0x3d3838b9	0.04497597
74	0x3cf20369	0.029542642
75	0x3e41064c	0.18850058
76	0xbcd6069e	-0.026126202
77	0x3c8b1487	0.016977562
78	0xbd8fe504	-0.07026103
79	0xbd18817b	-0.037232857
80	0xbd458ef4	-0.048232034
81	0x3b6c6707	0.0036072151
82	0x3c80479f	0.015659152
83	0xbd839877	-0.06425565
84	0xbc0c979d	-0.008581069
85	0xbd4215b2	-0.04738397
86	0xbbf01c81	-0.0073276167
87	0x3cb696f9	0.022288786
88	0xbd35f62e	-0.04442423
89	0xbce9bfa1	-0.028533759
90	0x3dabf4a0	0.08396268
91	0x3d82e7c2	0.063918605
92	0xbd1fd8d8	-0.039025158
93	0x3d411b24	0.047145024
94	0x3bb2b51b	0.0054537184
95	0x3de650bf	0.1124587
96	0xbddc7241	-0.1076398
97	0x3dbbfb26	0.09178762
98	0x3d4ea771	0.050452653
99	0xbd038498	-0.032108873
100	0xbd60b056	-0.054855667
101	0xbdadeff9	-0.08493037
102	0xbc510f80	-0.012760043
103	0xbd1396bd	-0.036032427
104	0x3d96e651	0.07368148
105	0x3cf11f7b	0.029433956
106	0x3d9584f1	0.07300747
107	0x3e51b3ad	0.20478697
108	0x3d4b70d1	0.049668137
109	0xbd6c857b	-0.057744484
110	0xbc3ab21a	-0.011395002
111	0xbda92671	-0.08259285
112	0x3cc0be07	0.023528112
113	0x3cb2fb20	0.021848261
114	0xbdbf0646	-0.093273684
115	0xbd0571f6	-0.032579385
116	0xbd5c6270	-0.053804815
117	0x3cdb9ab3	0.026807165
118	0xbdb331ff	-0.087497704
119	0x3d56e053	0.052460026
120	0xbdaba422	-0.08380915
121	0xbddd6eab	-0.10812124
122	0xbdbea952	-0.09309639
123	0x3d456aa7	0.048197415
124	0xbdc4914d	-0.095980264
125	0xbcb55a2d	-0.022137726
126	0x3db515ad	0.08842025
127	0xbde4f281	-0.111790664
128	0x3d9a57fb	0.07536312
129	0x3de45188	0.11148363
130	0xbcf9164e	-0.030406144
131	0x3d002fac	0.031295463
132	0xbd6fd99e	-0.058557145
133	0x3cc77eab	0.024352392
134	0xbdbdd5b3	-0.092692755
135	0x3d7daafe	0.06193065
136	0x3ac21744	0.0014807959
137	0x3e06979f	0.13143776
138	0x3d6078c6	0.05480268
139	0x3e0de40d	0.13856526
140	0x3cfa6780	0.03056693
141	0x3c44ca80	0.01201117
142	0xbdc4c9ac	-0.09608778
143	0x3daff4d4	0.08591619
144	0xbcd3ad5b	-0.025839498
145	0x3d7159a9	0.058923397
146	0xbc858fe5	-0.016303966
147	0xbc295b06	-0.010336643
148	0x3c6b9039	0.014377647
149	0xbdd3c207	-0.10339742
150	0xbd9b6514	-0.075876385
151	0xbc4f46db	-0.012651171
152	0x3d9b79a8	0.075915635
153	0x3d9c1061	0.076203115
154	0xbc056eff	-0.008144139
155	0x3e0c8b1d	0.13724943
156	0x3d16e3b2	0.03683824
157	0xbd040131	-0.0322277
158	0xbcfd268b	-0.030902168
159	0xbd539331	-0.051654045
160	0xbc613d2a	-0.013747493
161	0x3ce48e9c	0.027900033
162	0x3dc4b41e	0.09604667
163	0xbd79f93b	-0.0610287
164	0xbd3baf03	-0.0458212
165	0x3cfad459	0.030618833
166	0xbd17704a	-0.03697232
167	0xbd6a7d15	-0.057248194
168	0xbde79170	-0.11307037
169	0x3d872924	0.06599644
170	0x3cae06c5	0.021243462
171	0x3e1ec9a0	0.15506601
172	0xbc69d2d4	-0.014271457
173	0x3cc38fcf	0.023872284
174	0xbd3ce0be	-0.04611277
175	0x3ba30b4b	0.0049757115
176	0xbd4a0444	-0.049320474
177	0xbcc330b8	-0.023826942
178	0xbadc4f6d	-0.0016808339
179	0xba0e5b37	-0.0005430462
180	0x3ddba990	0.10725701
181	0x3d70ad02	0.058758743
182	0xbdcb9b1b	-0.099416934
183	0x3d0f56c6	0.034994863
184	0xbd9ff2a4	-0.07809952
185	0x3e00d7b5	0.12582286
186	0xbc9834e2	-0.018579904
187	0x3cf31b90	0.029676229
188	0x3d7ec68e	0.062201075
189	0x3dd7140f	0.10501873
190	0xbd0eceed	-0.03486531
191	0xbbc7ebef	-0.0061011235
192	0xbddefcbd	-0.1088805
193	0xbd8f2c63	-0.06990888
194	0xbdf480bd	-0.119386174
195	0x3b0b9b4e	0.0021302286
196	0x3d940439	0.07227368
197	0x3c113253	0.008862096
198	0x3c5e7370	0.013577327
199	0x3d6ccc57	0.05781206
200	0x3ce191c6	0.02753533
201	0x3d588190	0.052857935
202	0x3dd55d98	0.10418242
203	0x3e004821	0.12527515
204	0xbc7673d1	-0.015042261
205	0xbc5b58f6	-0.013387909
206	0xbd10c307	-0.035342243
207	0x3cb91d97	0.022597117
208	0xbc190eb3	-0.0093418835
209	0x3d9a217b	0.07525917
210	0xbd7c82fb	-0.06164835
211	0x3d649711	0.05580813
212	0xbdc67400	-0.09690094
213	0xbdceeec0	-0.10104132
214	0xbdca2cba	-0.09871812
215	0xbdc111f0	-0.094272494
216	0xbd260152	-0.040528603
217	0xbc6bd40a	-0.014393816
218	0xbd8fa44d	-0.0701376
219	0xbd6db913	-0.05803783
220	0xbd6e03bb	-0.058109026
221	0xbdbdf310	-0.09274876
222	0xbda98b70	-0.08278549
223	0x3d63bc7f	0.055599686
224	0xbd988d4b	-0.074488245
225	0x3bcd359a	0.0062624933
226	0x3cb98363	0.022645658
227	0xbc6eed73	-0.0145829795
228	0xbd674ada	-0.05646787
229	0x3d3b16dd	0.0456761
230	0x3c8ccfcc	0.017188929
231	0xbdfc4ca2	-0.12319304
232	0x3d333ef0	0.043761194
233	0x3da22ce4	0.079187185
234	0xbdf12dba	-0.117763
235	0x3d2f309b	0.042770963
236	0xbdea6e33	-0.114468
237	0xbd2165c6	-0.0394037
238	0xbdf11433	-0.11771431
239	0xbda70bda	-0.081565574
240	0x3d68ee6a	0.056867994
241	0xbd0c0bed	-0.03419106
242	0xbc36cbf0	-0.011157021
243	0x3d2c2d6c	0.042035505
244	0xbc8106af	-0.015750257
245	0xbd90850b	-0.07056626
246	0x3d874c75	0.0660638
247	0xbdc08cea	-0.09401877
248	0xbdadabb5	-0.08480016
249	0xba8c3d6e	-0.001069946
250	0x3d43bc1e	0.047786824
251	0x3d013c83	0.03155185
252	0x3db993b2	0.09061374
253	0xbdefb2f9	-0.11704058
254	0x3d9b1e11	0.07574094
255	0x3d1a80f4	0.037720636

arith.constant5 f4 [3, 128]
0	0xbdb4ccae	-0.08828102
1	0xbdbf0094	-0.09326282
2	0xbe671bc9	-0.22569193
3	0x3e4fd5f1	0.20296456
4	0x3e38d6e0	0.18050718
5	0xbe0dce4d	-0.13848229
6	0xbdae522b	-0.08511766
7	0x3e6333fd	0.221878
8	0x3e07cf6d	0.1326272
9	0x3c9c41be	0.019074317
10	0xbe40d3c5	-0.18830784
11	0x3dc27f1b	0.094969
12	0x3dd830a6	0.10556154
13	0x3e252fa7	0.16131459
14	0x3e68f5dd	0.2275004
15	0x3dc18a42	0.09450199
16	0x3dfd2331	0.12360228
17	0x3e25d120	0.16193056
18	0x3b93b0fd	0.0045071826
19	0xbe0a9102	-0.13531879
20	0x3d9754d9	0.0738923
21	0xbcc85a19	-0.024457024
22	0x397e966d	0.00024279366
23	0xbe42ef8d	-0.19036694
24	0xbc6e6bfe	-0.0145521145
25	0xbe406270	-0.18787551
26	0x3e0f32a2	0.13984159
27	0x3e079b8c	0.1324293
28	0x3d04f9ad	0.032464672
29	0x3db2231d	0.086981036
30	0x3dc83d2e	0.09777294
31	0x3e02f545	0.12788875
32	0x3e2fecc1	0.17180158
33	0xbe66c752	-0.22536972
34	0xbdda9024	-0.10672024
35	0xbe5c3c45	-0.21507366
36	0x3d7c4d6e	0.06159728
37	0xbe59dfdf	-0.21276806
38	0x3c55d1b9	0.01305049
39	0xbd001d44	-0.03127791
40	0xb729a6bd	-1.0112007e-05
41	0xbe225e69	-0.15856327
42	0xbdf1c017	-0.11804216
43	0x3e34c324	0.17652565
44	0x3e1f7ce7	0.1557499
45	0x3e020d2d	0.12700339
46	0xbe0bb7bb	-0.13644306
47	0xbd10a688	-0.035315067
48	0xbdfe0709	-0.124036856
49	0x3de9a4e0	0.114084005
50	0xbc995c40	-0.018720746
51	0xbd97006f	-0.073731296
52	0x3d343361	0.04399431
53	0x3cd9df48	0.026595727
54	0xbde47f41	-0.11157084
55	0x3d132f6e	0.035933904
56	0xbdc74f0b	-0.09731873
57	0xbe7339a5	-0.23752458
58	0x3dce273b	0.10066076
59	0xbe7606f9	-0.24026097
60	0xbe004bd2	-0.12528923
61	0x3dbc42bc	0.09192416
62	0xbdeb3e8e	-0.11486541
63	0x3e7f1f80	0.2491436
64	0x3dec0050	0.11523497
65	0xbe3dc2f2	-0.18531397
66	0xbe56405c	-0.20922989
67	0x3e36e963	0.17862467
68	0xbd090568	-0.03345242
69	0x3e554a55	0.20829137
70	0xbd69405d	-0.056946147
71	0x3dc080aa	0.09399541
72	0x3d856645	0.06513647
73	0xbccfe650	-0.025378376
74	0x3e3a28a0	0.1817956
75	0x3dedaa13	0.11604705
76	0x3c88bf5f	0.016692815
77	0xbbbe4514	-0.0058065746
78	0x3d73c432	0.05951328
79	0x3e0a6f68	0.1351906
80	0xbd1d19ca	-0.038354672
81	0x3e4fff87	0.2031232
82	0xbc321149	-0.010868379
83	0x3dd6d89d	0.104905345
84	0xbe2fdc0c	-0.17173785
85	0x3d7e7dcc	0.062131688
86	0x3dd826f8	0.10554308
87	0x3c3cb94a	0.011518786
88	0x3cb85d58	0.022505447
89	0x3e2e0644	0.16994578
90	0xbe1e4a41	-0.15458013
91	0x3e39f59a	0.18160096
92	0xbe7efe01	-0.24901582
93	0x3e4e0d69	0.20122303
94	0xbcf167c6	-0.029468428
95	0xbc28b8ac	-0.010297935
96	0x3d5a6b44	0.053324953
97	0x3e2a9798	0.16659391
98	0x3e04e004	0.1297608
99	0xbe515f78	-0.20446575
100	0xbb9a1f60	-0.004703447
101	0x3c03d7b9	0.008047038
102	0xbe089118	-0.13336599
103	0x3d7a1add	0.061060775
104	0xbe85e1e8	-0.26148915
105	0x3e3b734f	0.18305705
106	0x3e141e11	0.14464594
107	0xbe25faf7	-0.16209017
108	0xbe361473	-0.17781238
109	0xbe2f700d	-0.17132588
110	0x3dadea8a	0.084920004
111	0x3e385075	0.17999442
112	0x3e6e2b1f	0.23258637
113	0x3d160482	0.036625393
114	0x3dad4fe5	0.08462504
115	0x3e6a911d	0.22906919
116	0xbe78b831	-0.24289013
117	0x3e2aced2	0.16680458
118	0xbdcf0130	-0.101076484
119	0xbe20698c	-0.15665263
120	0x3e2ab577	0.16670786
121	0x3e439284	0.1909886
122	0xbd201ae9	-0.039088164
123	0xbcd4797d	-0.025936836
124	0xbd6a4619	-0.057195757
125	0xbd9c716a	-0.076388195
126	0x3dea4b52	0.114401475
127	0xbe016ab6	-0.12638363
128	0xbde8345c	-0.11338112
129	0xbd2390cc	-0.03993301
130	0x3e2aa76a	0.16665426
131	0xbde067b9	-0.109572835
132	0xbe1124bc	-0.1417417
133	0xbb716870	-0.0036835931
134	0x3da6b5df	0.08140158
135	0x3e33d6ca	0.17562404
136	0x3e43b771	0.19112946
137	0x3e24c183	0.16089444
138	0xbe4a8eb8	-0.19781005
139	0x3e1e718c	0.15473002
140	0x3d83422f	0.06409108
141	0xbd047e88	-0.032347232
142	0x3ccc424f	0.024933962
143	0xbdcb9d10	-0.09942067
144	0xbd19243c	-0.03738807
145	0x3bbb4226	0.0057146726
146	0x3c02259c	0.007943537
147	0x3e2dc221	0.16968586
148	0x3d48fff7	0.049072232
149	0x3e464498	0.19362104
150	0x3badaa19	0.0052998182
151	0xbdb25ea8	-0.087094605
152	0x3e01255c	0.12611908
153	0xbdfd5541	-0.123697765
154	0xbe49f205	-0.1972123
155	0xbe5874f5	-0.21138366
156	0x3e2f58a0	0.17123652
157	0x3e4a2512	0.19740704
158	0x3d539b7c	0.051661953
159	0x3e06aee8	0.13152659
160	0xb94f0606	-0.00019743302
161	0x3e060780	0.13088799
162	0x3d55b15a	0.05217109
163	0xbdfa0b6b	-0.12209209
164	0x3d1d2964	0.03836955
165	0xbd819bf2	-0.06328572
166	0x3e1b998c	0.15195292
167	0x3e077c78	0.13231075
168	0xbe42992d	-0.19003744
169	0xbd6df03c	-0.058090433
170	0xbd9d99fc	-0.07695386
171	0x39761352	0.00023467586
172	0x3ddf50d6	0.1090409
173	0xbe7b6d8a	-0.24553505
174	0xbe4816e7	-0.19539987
175	0xbe0d7ad2	-0.13816383
176	0x3dc8fe4d	0.09814129
177	0x3db61ae9	0.088918515
178	0x3dcae199	0.099063106
179	0xbe72f2f1	-0.23725487
180	0xbe272d30	-0.16325831
181	0xbe2d38bf	-0.16916178
182	0x3dcbe340	0.09955454
183	0x3e2a5960	0.16635656
184	0x3e3a4a7b	0.18192475
185	0x3bc4fd5a	0.006011647
186	0xbd05b9df	-0.032647964
187	0x3b81fb4e	0.0039667254
188	0x3ce1bc97	0.027555747
189	0x3e494fcb	0.19659345
190	0x3aa0370d	0.0012223438
191	0x3d01f537	0.031727996
192	0x3e2f02b7	0.1709088
193	0x3dcec576	0.100962564
194	0x3e6260cf	0.22107242
195	0xbe07a5d6	-0.13246855
196	0x3e0c1c79	0.13682736
197	0xbc3c76e0	-0.011502951
198	0xbe0cbc20	-0.13743639
199	0xbd649a91	-0.05581147
200	0x3e2a9371	0.16657807
201	0x3e6eb834	0.23312455
202	0x3d5e47af	0.05426758
203	0x3d632b57	0.055461254
204	0x3e220b16	0.15824541
205	0x3c309dda	0.010779822
206	0x3dd0852f	0.10181653
207	0x3e532808	0.2062074
208	0x3e1f04b7	0.15529142
209	0xbd046089	-0.032318626
210	0x3e05e32e	0.13074943
211	0xbe39410a	-0.18091217
212	0xbdb6a1f0	-0.08917606
213	0x3d062780	0.032752514
214	0xbda2efe0	-0.07955909
215	0x3e0a7d83	0.13524441
216	0xbe1445c2	-0.14479735
217	0xbe5b4173	-0.21411686
218	0x3cd9fece	0.026610758
219	0x3d9690f1	0.07351864
220	0xbcff07e3	-0.03113169
221	0xbcbdf097	-0.023186011
222	0xbe4d553b	-0.20052044
223	0xbd8d5d4b	-0.0690256
224	0xbd6293a5	-0.055316586
225	0x3dce7234	0.10080376
226	0x3d8713dc	0.06595585
227	0xbb8a9749	-0.0042294604
228	0x3e1d0bef	0.15336584
229	0xbcf0ec86	-0.029409658
230	0x3d9f4ece	0.07778703
231	0xbe1faf2a	-0.15594164
232	0xbb831a25	-0.0040009194
233	0xbd31bf50	-0.04339534
234	0xbc045b26	-0.008078372
235	0xbe59959b	-0.21248476
236	0x3e579be1	0.21055557
237	0xbdf4ecb8	-0.11959213
238	0xbdfc1e49	-0.12310464
239	0x3e21ddd9	0.15807284
240	0x3b8a7e88	0.0042265095
241	0xbdd4f9a6	-0.10399179
242	0xbe650c94	-0.2236808
243	0x3ca77e8d	0.020446086
244	0x3db2a163	0.08722188
245	0x3d6783dd	0.05652224
246	0xbe5459c6	-0.20737371
247	0xbd8491c4	-0.06473115
248	0xbd09e3da	-0.03366456
249	0x3e42d398	0.19026029
250	0x3df16e32	0.11788596
251	0x3dafc033	0.08581581
252	0xb9ae7107	-0.00033272078
253	0xbe34037b	-0.17579453
254	0xbe85a798	-0.26104426
255	0x3e2b3a45	0.16721447

arith.constant6 f4 [128, 128]
0	0xbe015ec0	-0.126338
1	0x3dbeaeb8	0.09310669
2	0xbd5b4e62	-0.05354155
3	0x3d72c0ac	0.059265777
4	0x3d3dc4ec	0.046330377
5	0x3dfc6e6a	0.12325747
6	0xbde9a1e6	-0.11407833
7	0x3de8437e	0.11340998
8	0xbd91bc33	-0.07115974
9	0xbe021414	-0.12702972
10	0xbd126810	-0.035743773
11	0xbe0b7cec	-0.13621873
12	0xbe03ad98	-0.1285919
13	0xbc14bcb0	-0.00907819
14	0x3b724a80	0.0036970675
15	0xbd71f354	-0.059069946
16	0xbd8641dd	-0.06555531
17	0xbdefb9ff	-0.11705398
18	0x3d83d0f4	0.06436339
19	0xbcf91298	-0.030404374
20	0x3d925752	0.07145561
21	0xbe02df19	-0.12780418
22	0x3e00fa31	0.1259544
23	0x3e0161ef	0.12635015
24	0xbc7caa50	-0.015421465
25	0x3d7ad400	0.061237335
26	0xbd6f6498	-0.058445543
27	0x3d3a4b4c	0.045481965
28	0xbe110361	-0.14161445
29	0xbdc6e5df	-0.09711813
30	0x3e028dd5	0.12749417
31	0xbde8f2ba	-0.113744214
32	0xbdb7e517	-0.08979242
33	0xbd81c6cb	-0.06336745
34	0x3deea5ea	0.11652739
35	0x3d6c488c	0.057686374
36	0xbe006042	-0.1253672
37	0xbb96d220	-0.0046026856
38	0x3d281010	0.041030943
39	0xbd111320	-0.03541863
40	0xbdbc2933	-0.091875456
41	0x3d9a365a	0.07529898
42	0xbdf765aa	-0.12079938
43	0xbda7f276	-0.08200543
44	0x3da68cea	0.08132346
45	0x3de8ad7a	0.11361213
46	0xbdd8557e	-0.10563181
47	0xbdef50ab	-0.11685308
48	0x3c7f7e70	0.01559411
49	0x3e10b881	0.14132883
50	0xbdc9ea57	-0.0985915
51	0xbde626b5	-0.112378515
52	0x3da3ee40	0.08004427
53	0xbe11f368	-0.14253008
54	0xbe1a2bf6	-0.15055832
55	0xbdffed5e	-0.12496446
56	0x3dd39492	0.10331072
57	0x3e08f801	0.13375856
58	0x3da8c47c	0.082406014
59	0xbddc89a4	-0.1076844
60	0x3c2d5460	0.010579199
61	0xbd104d7c	-0.035230145
62	0xbe021ed8	-0.12707078
63	0x3c4ebac0	0.012617767
64	0x3c56c630	0.013108775
65	0x3d0dbc10	0.03460318
66	0x3cafb9b8	0.021450862
67	0x3e16e71f	0.14736603
68	0x3ded2a16	0.11580293
69	0xbd8654c5	-0.06559137
70	0xbda6b9e7	-0.08140927
71	0x3d65a498	0.056065172
72	0x3e0a5b87	0.13511477
73	0x3deeb74a	0.11656053
74	0xbd6a743c	-0.057239756
75	0xbd93241a	-0.0718462
76	0x3dd3be3a	0.10339017
77	0x3dd9a9de	0.10628103
78	0x3c83cff0	0.016090363
79	0x3dd5af1a	0.104337886
80	0xbdc72bee	-0.09725176
81	0xbb0bd4c0	-0.0021336526
82	0xbd279ebc	-0.040922865
83	0x3c9c5b80	0.0190866
84	0xbde79d8a	-0.11309345
85	0xbda2711b	-0.079317294
86	0xbe1a1c6c	-0.15049905
87	0x3d4c5fec	0.049896166
88	0xbe1b24bf	-0.15150736
89	0x3d2caab0	0.042154968
90	0x3d8a5042	0.06753589
91	0xbdc43a2d	-0.09581409
92	0x3dcd241e	0.100166544
93	0xbcce6df8	-0.025198922
94	0xbc82b768	-0.015956596
95	0xbdc6a291	-0.09698976
96	0xbdf80338	-0.12109989
97	0xbe09a94c	-0.13443488
98	0xbd85fcc8	-0.06542355
99	0xbe0cdfc8	-0.13757241
100	0x3d7c59d8	0.06160912
101	0xbcb5a0e8	-0.022171453
102	0xbdbff89c	-0.0937359
103	0xbdab2cfe	-0.08358191
104	0xbc2aafb0	-0.010417864
105	0xbe01d058	-0.12677133
106	0xbe142488	-0.1446706
107	0x3dfa416e	0.12219511
108	0xbda817b8	-0.08207649
109	0xbd97584f	-0.073898904
110	0x3d40bd00	0.047055244
111	0xbd34e10a	-0.044159926
112	0xbdd5a38f	-0.10431587
113	0x3c93ef30	0.01805839
114	0x3d5030b0	0.050827682
115	0x3e04c01d	0.1296391
116	0x3df64232	0.120243445
117	0x3c292880	0.010324597
118	0xbddefd13	-0.10888114
119	0xbd55ad3e	-0.05216717
120	0x3dd59786	0.104292914
121	0x3da98bc2	0.0827861
122	0x3e0caa47	0.1373683
123	0x3d8a728c	0.06760129
124	0xbd91ad1a	-0.07113095
125	0x3e0ed66b	0.13948981
126	0x3cf3e808	0.029773727
127	0xbce0e480	-0.027452707
128	0x3d67a5bc	0.05655454
129	0xbe043253	-0.12909822
130	0xbde9e092	-0.114197865
131	0x3d52fd50	0.05151111
132	0xbde9678e	-0.113967046
133	0xbc1cbf10	-0.009567037
134	0xbc46c2bc	-0.012131389
135	0x3d2af8f6	0.041741334
136	0x3db1657b	0.08661934
137	0x3d287a34	0.041132167
138	0xbd1cd8f2	-0.038292833
139	0xbe11383b	-0.14181606
140	0xbd167614	-0.0367337
141	0xbdeb3d39	-0.11486287
142	0x3dc118b6	0.09428541
143	0xbd1a407c	-0.037659153
144	0xbd9566de	-0.07295011
145	0xbe161f28	-0.14660323
146	0x3c885307	0.016641153
147	0xbd9a8e04	-0.075466186
148	0xbcbe0e90	-0.023200303
149	0x3d95f21c	0.07321569
150	0x3d177d3c	0.036984667
151	0xbda1be1e	-0.0789759
152	0x3d2a66d8	0.041601986
153	0x3de1b5ba	0.1102099
154	0x3da92fdc	0.082610816
155	0xbdd8bd0f	-0.10582935
156	0xbd6d7280	-0.057970524
157	0x3e09d2dc	0.13459343
158	0xbe1c43f7	-0.15260302
159	0xbe0b461e	-0.13600966
160	0x3da87ba6	0.08226709
161	0x3db62726	0.08894186
162	0x3dc98a61	0.09840847
163	0xbdcf99c7	-0.101367526
164	0x3de40aca	0.1113487
165	0xbd7a6e58	-0.06114039
166	0xbbfafeb6	-0.0076597584
167	0xbdd0339e	-0.10166095
168	0xbe0632bd	-0.13105293
169	0x3dbd9ce4	0.0925844
170	0xbdab6262	-0.083683744
171	0xbda072f9	-0.07834429
172	0x3d186120	0.037202
173	0x3d5ebe26	0.05438056
174	0xbc6e9d53	-0.014563876
175	0xbd0adb01	-0.033900265
176	0x3dad66e3	0.0846689
177	0xbcd81d50	-0.026381165
178	0xbe24b668	-0.16085207
179	0x3cd7e9dc	0.02635663
180	0xbe011fa3	-0.12609725
181	0xbd3736fc	-0.04473017
182	0x3d70b614	0.058767393
183	0x3daa2c65	0.08309249
184	0x3e028c05	0.12748726
185	0x3d91e598	0.0712387
186	0x3db07672	0.08616342
187	0xbd0f9b36	-0.03506013
188	0xbdf600ab	-0.12011846
189	0x3d071480	0.032978535
190	0x3d7e14d4	0.062031582
191	0x3da32037	0.07965129
192	0xbcce5690	-0.02518776
193	0xbe19b67b	-0.15011017
194	0xbd85cb42	-0.06532909
195	0x3d84f932	0.06492843
196	0x3df53a66	0.11974029
197	0xbd94440d	-0.07239542
198	0x3d38315d	0.04496895
199	0xbe1b4272	-0.15162066
200	0x3defce7a	0.11709304
201	0x3dec1faa	0.11529477
202	0xbd8390c6	-0.06424098
203	0x3d8451af	0.064608924
204	0xbdf4b2b2	-0.11948146
205	0x3d1ad3a8	0.037799507
206	0xbdfc1b1c	-0.12309858
207	0xbd798097	-0.06091365
208	0x3d67e74b	0.056617063
209	0xbde2e940	-0.11079645
210	0x3dfc15f1	0.123088725
211	0x3da3600c	0.07977304
212	0xbd36cc10	-0.044628203
213	0x3e02c3ab	0.12769954
214	0x3e108541	0.14113332
215	0xbe0d5413	-0.13801603
216	0x3da4bee6	0.080442235
217	0xbe16e6aa	-0.14736429
218	0xbe10383b	-0.1408395
219	0xbcc0bf8a	-0.023528833
220	0x3e012319	0.12611045
221	0x3d971677	0.07377332
222	0xbd04eea6	-0.032454155
223	0xbd9a4ee2	-0.07534577
224	0x3d8056c2	0.06266548
225	0x3da2be12	0.07946409
226	0xbe0b9506	-0.13631067
227	0x3da5e202	0.08099748
228	0x3dc0c1ee	0.09411989
229	0x3d293354	0.041308716
230	0x3dd50ee3	0.1040323
231	0xbe1e560e	-0.15462515
232	0x3da294a5	0.07938508
233	0x3b21dd80	0.0024698675
234	0x3d85cc4c	0.06533107
235	0x3b273fa3	0.0025520108
236	0xbd5fd560	-0.05464685
237	0x3e09a4b0	0.1344173
238	0xbe25cb78	-0.16190898
239	0x3ddc3086	0.107514426
240	0xbe141273	-0.14460163
241	0x3da8267b	0.082104646
242	0x3d9ae5b0	0.07563341
243	0x3da30a3f	0.07960939
244	0xbccd03ea	-0.02502628
245	0xbdc713b9	-0.09720559
246	0x3e1c079d	0.15237279
247	0x3dd2d415	0.10294358
248	0x3e1245eb	0.14284484
249	0x3dab6cee	0.08370386
250	0xbdeb610c	-0.114931196
251	0x3def6851	0.11689819
252	0xbccc08f0	-0.024906605
253	0x3df4eebe	0.11959599
254	0xbdaa369b	-0.083111964
255	0x3c6f0dab	0.014590661

arith.constant7 f4 [128]
0	0x00000000	0.0
1	0xbc33678c	-0.0109499805
2	0xbbd3e9c3	-0.0064670756
3	0x3c78b0e0	0.015178889
4	0x3cab2dd6	0.02089588
5	0xbc497698	-0.012296341
6	0xbc4c37c5	-0.012464468
7	0x3b1add87	0.0023630576
8	0x00000000	0.0
9	0xbbbce1a8	-0.005764205
10	0xbc29f8a6	-0.010374224
11	0xbb953fcb	-0.004554724
12	0x3c23a55a	0.009988153
13	0x00000000	0.0
14	0x3b147d7c	0.0022657802
15	0x3c47528d	0.012165678
16	0xbc004df9	-0.00783109
17	0xbb02d571	-0.0019963647
18	0xbad811eb	-0.0016484832
19	0xbbc512e0	-0.006014213
20	0xbc12b3cd	-0.008954001
21	0xbbc46b9f	-0.0059942747
22	0xbbc4bf10	-0.0060042217
23	0xbbc496b8	-0.0059994124
24	0xbc38a3a3	-0.011269483
25	0xbbee0cdd	-0.007264717
26	0xbc05b808	-0.008161552
27	0x3cda4734	0.02664528
28	0xbc3cb1c7	-0.011516995
29	0xbc52831b	-0.012848641
30	0x00000000	0.0
31	0xba850c6a	-0.0010150794
32	0x3c0fbb18	0.008772634
33	0xbbfa28fa	-0.0076342793
34	0xbc1a4089	-0.0094148
35	0x3b842a38	0.004033353
36	0xbb0b8b02	-0.0021292572
37	0x00000000	0.0
38	0xbbab6591	-0.0052306135
39	0xbc0a0ae3	-0.008425447
40	0x3c44e0a2	0.012016447
41	0xbc72e033	-0.014823961
42	0x00000000	0.0
43	0x3c13a1ef	0.009010776
44	0x00000000	0.0
45	0x3caadc9a	0.020857144
46	0x3ba8fce3	0.0051570996
47	0x3c0b0d7a	0.0084871
48	0xbbbe81e2	-0.005813823
49	0x3c12debb	0.008964236
50	0xbbd1631b	-0.006389988
51	0x3c4b7031	0.012416885
52	0x3bfd23fd	0.0077252374
53	0x00000000	0.0
54	0xbbc13fed	-0.005897513
55	0x3a8596a8	0.0010191994
56	0xbc21fcc9	-0.009886929
57	0xbb9e5acf	-0.0048326026
58	0x3c43a819	0.011941933
59	0xbb6c5bb4	-0.0036065402
60	0xbbcf269e	-0.006321742
61	0xbbbce2c9	-0.0057643396
62	0xbc82c4c6	-0.01596297
63	0x3cb40844	0.021976598
64	0xbb2e4158	-0.002658924
65	0xbc7440eb	-0.014908056
66	0xbc3dae30	-0.011577174
67	0xbaadf6fa	-0.0013272457
68	0x00000000	0.0
69	0x00000000	0.0
70	0x3c4cc068	0.012497045
71	0x3bd603ed	0.0065312297
72	0xbc10a7e3	-0.00882909
73	0xbc0eecf2	-0.008723484
74	0x3c31d1ee	0.010853274
75	0x3adef587	0.0017010429
76	0xbc008cf1	-0.007846103
77	0xbbd68ab1	-0.006547295
78	0x3bc5cca3	0.0060363575
79	0xbc0901e4	-0.008362267
80	0xbc349fdb	-0.011024441
81	0x3cac1caa	0.021009762
82	0xbc4f524e	-0.0126539
83	0x3c8036fe	0.015651222
84	0xbc0d8345	-0.008637254
85	0x00000000	0.0
86	0x3bc4d1ce	0.006006456
87	0xbbd733b1	-0.0065674414
88	0x00000000	0.0
89	0x3c29dccd	0.010367584
90	0xbc375d14	-0.011191625
91	0xba4fe56e	-0.0007930611
92	0xbc1d8fe2	-0.009616824
93	0x3c92c6df	0.017917095
94	0x3c8a568d	0.016886974
95	0x3b739984	0.003717036
96	0x3c7988b3	0.015230346
97	0xba068701	-0.00051318115
98	0x3afbf96e	0.0019224116
99	0x3ae78931	0.0017664788
100	0xbbffa88a	-0.007802074
101	0xbc8fb0c9	-0.017540352
102	0xbc824449	-0.015901702
103	0x3beefaab	0.0072930655
104	0x3a40cfe8	0.0007355199
105	0x3c8f2113	0.017471826
106	0x3c5db0bd	0.013530907
107	0x00000000	0.0
108	0xbbfef44e	-0.007780588
109	0xbbabd97e	-0.005244433
110	0xbc5f5116	-0.013630172
111	0x00000000	0.0
112	0x3c3ec149	0.011642762
113	0x3c4a2f34	0.012340356
114	0x3cae6432	0.021288011
115	0x3c7b85bf	0.015351712
116	0xbbdfd08c	-0.0068302806
117	0x3c220dc3	0.009890976
118	0x3b80adf4	0.003926987
119	0x00000000	0.0
120	0x3cd6f840	0.026241422
121	0xbb99c2c6	-0.0046924083
122	0xbbab0185	-0.005218687
123	0x3b181899	0.002320802
124	0xbc2eb437	-0.010663084
125	0x00000000	0.0
126	0x3caeb8b7	0.021328313
127	0xbc5d8e87	-0.013522751

arith.constant8 f4 [3]
0	0x3c60957c	0.013707515
1	0xbc54df33	-0.012992668
2	0x3962c4c0	0.00021626335

sequential_1/conv2d_1/Relu;sequential_1/conv2d_1/add;sequential_1/conv2d_1/convolution; f4 [32, 3, 3, 3]
0	0x38a7ce59	8.001616e-05
1	0xba13527d	-0.00056198967
2	0x3a01c64a	0.0004950507
3	0x390a46a7	0.00013187026
4	0x398f69e4	0.0002735398
5	0x3990328a	0.00027503475
6	0xb9318971	-0.00016931236
7	0x39157a4c	0.00014255306
8	0x38d60cb8	0.00010206684
9	0x38efc61f	0.00011433311
10	0x3a034505	0.0005007538
11	0xb930f410	-0.00016875588
12	0xba00c562	-0.0004912225
13	0xb98359f4	-0.00025053287
14	0xb99899bf	-0.0002910625
15	0xb9eab407	-0.0004476609
16	0x39b418f1	0.00034350858
17	0xb90a01d5	-0.00013161388
18	0x3999c79a	0.0002933115
19	0xb8c00acd	-9.157285e-05
20	0x38f9b6b7	0.000119072785
21	0x3989e154	0.0002629856
22	0x398c518b	0.00026763635
23	0x3a0a84dd	0.00052840804
24	0xb984909b	-0.0002528474
25	0x391dd130	0.00015050615
26	0xb910b983	-0.00013802019
27	0xb96bd042	-0.00022488929
28	0xb90703e2	-0.0001287605
29	0xb92aa672	-0.00016274469
30	0xba0446f5	-0.0005045974
31	0xb94d17ed	-0.00019559237
32	0x393408b4	0.0001716938
33	0xb906a904	-0.00012842199
34	0x39e3d0d9	0.00043452418
35	0x3a245766	0.0006269127
36	0xb92691c3	-0.00015885294
37	0x39efde57	0.00045751288
38	0x3796b83e	1.7967188e-05
39	0x391f1287	0.00015170324
40	0xb92754ab	-0.00015957902
41	0x3a18f1ae	0.0005834353
42	0xba069e3a	-0.0005135272
43	0x39f5687e	0.00046807894
44	0x397a060c	0.0002384411
45	0xb9929ad2	-0.0002796264
46	0x3a080e7f	0.00051901484
47	0xb85d7677	-5.2800835e-05
48	0x38a776b2	7.985289e-05
49	0x3a1d0a85	0.0005990642
50	0x3a077447	0.0005167168
51	0xb9ddb95f	-0.00042290517
52	0x39cee062	0.0003945856
53	0x39d5af5b	0.00040757176
54	0x39df0505	0.00042537614
55	0x3a025dfc	0.0004973111
56	0xb9e25865	-0.00043171938
57	0x3a01567d	0.0004933847
58	0x397509b5	0.00023368637
59	0xb9f6ce1f	-0.0004707435
60	0xb9ef6f4a	-0.0004566855
61	0x3a09c9c4	0.00052562007
62	0xb9ea9b46	-0.00044747646
63	0xba162abb	-0.0005728413
64	0xb904d920	-0.00012669386
65	0x3a0dc208	0.0005407636
66	0xb9258b7d	-0.0001578759
67	0x38ef71d7	0.000114176124
68	0xb8d1944e	-9.9935205e-05
69	0xb9f2a506	-0.0004628079
70	0x391d7942	0.00015017859
71	0x39fb496f	0.00047929163
72	0xb9fd2a5d	-0.00048287484
73	0xb935f4e6	-0.00017352737
74	0xb9c4652d	-0.00037459415
75	0x363cc131	2.8126635e-06
76	0xb9cdcd65	-0.00039253678
77	0x39d09eb6	0.000397911
78	0xb99d4524	-0.00029996887
79	0x38fa6895	0.00011940409
80	0x39898091	0.00026226466
81	0xb9b02ff2	-0.00033605058
82	0x38b0f423	8.437808e-05
83	0xb940a600	-0.00018372387
84	0xb9c2950d	-0.00037113615
85	0x39816b2f	0.00024684655
86	0xb9b04649	-0.00033621702
87	0x3995c534	0.00028566422
88	0x39821d3e	0.0002481732
89	0xb9f16069	-0.00046038933
90	0xb98ed9b6	-0.00027246558
91	0x3992a513	0.0002797028
92	0xb7b3733d	-2.1392125e-05
93	0xb9d2a8cd	-0.00040180088
94	0x39f2aad7	0.00046285123
95	0x39c4ecc2	0.00037560432
96	0xb9b6a79b	-0.0003483862
97	0x3788b8e2	1.6298556e-05
98	0xb93ee976	-0.00018206783
99	0xb9eeddb5	-0.00045560082
100	0xb927b369	-0.00015993197
101	0xb9460d07	-0.00018887605
102	0xba0f8995	-0.00054755184
103	0xb9dcde69	-0.00042127378
104	0xba16a42f	-0.0005746511
105	0xb96c2838	-0.00022521697
106	0x39aab4b6	0.00032559567
107	0x3992b19d	0.00027979622
108	0x39b27105	0.00034035012
109	0x393638fe	0.00017378104
110	0x386fce8c	5.7174402e-05
111	0xb9bff334	-0.0003661156
112	0x3821ed52	3.8606413e-05
113	0x39fb5894	0.00047940447
114	0xb98dc0b9	-0.00027037205
115	0xb903a4a3	-0.00012554466
116	0x3a0b411c	0.0005312131
117	0xb872fb3b	-5.7931273e-05
118	0x38d5a27e	0.00010186898
119	0x3a199576	0.0005858758
120	0xb92348d2	-0.00015572019
121	0x3a011afd	0.0004924981
122	0xb719b05a	-9.160571e-06
123	0x39c824f7	0.00038174514
124	0x39b368ea	0.00034219708
125	0x361e9b65	2.3634286e-06
126	0x39085834	0.00013002829
127	0xb9013888	-0.00012323458
128	0xb9469b2f	-0.00018940562
129	0xb9bdddfc	-0.0003621428
130	0x3870d8a0	5.7422207e-05
131	0x3a18f49b	0.0005834789
132	0xb8b9ad77	-8.853798e-05
133	0xb9978959	-0.00028903296
134	0xb91726f2	-0.0001441499
135	0x39b571bf	0.00034607758
136	0x39847ca5	0.0002526987
137	0xb9dfa98d	-0.000426602
138	0xb99fb4ed	-0.00030461643
139	0x38a961f9	8.076797e-05
140	0x39902466	0.0002749294
141	0x38c294f0	9.278383e-05
142	0xb9c16628	-0.0003688794
143	0x391d3fcf	0.00014996457
144	0xb9956e77	-0.00028501797
145	0x39ceacd1	0.0003942014
146	0xb9f861af	-0.00047375026
147	0xb9fa532f	-0.00047745692
148	0x38fca840	0.000120476354
149	0x39162f28	0.00014322682
150	0x39e1ca83	0.00043066227
151	0xb91b1016	-0.00014787944
152	0xb9dffa26	-0.0004272025
153	0xb9d126c3	-0.00039892466
154	0x39f9970a	0.00047605514
155	0x3983e7a4	0.00025158853
156	0xb89d4ea1	-7.500989e-05
157	0xb9a5ae6e	-0.00031601213
158	0xb8e91696	-0.00011114513
159	0x3a1359d3	0.000562099
160	0x3a1102a2	0.00055317034
161	0xb7aed407	-2.084115e-05
162	0x3a10a0a7	0.0005517103
163	0xb9e8af2c	-0.00044381001
164	0xb9ec1639	-0.00045029985
165	0xb92c6252	-0.00016439825
166	0x39ce60b5	0.00039363434
167	0xb9d1537b	-0.00039925784
168	0xb9287fa7	-0.00016069283
169	0x335b4bdd	5.1058908e-08
170	0xba23d764	-0.0006250052
171	0xb9b48e57	-0.00034438327
172	0x3970b8e4	0.0002295706
173	0xb7c7c3f1	-2.3813891e-05
174	0x3a149a9c	0.00056687905
175	0xb9fce43a	-0.00048235228
176	0x396fa589	0.00022854483
177	0x3a06d59d	0.0005143525
178	0x391429f3	0.00014130007
179	0xb9eb8c5b	-0.00044927266
180	0xb8f329fe	-0.000115949646
181	0x39b9303b	0.00035321884
182	0x39d36a66	0.0004032433
183	0x3985e34d	0.0002553709
184	0x3948b7d7	0.00019141972
185	0xb9a0536f	-0.0003057974
186	0xb98059b3	-0.00024480894
187	0x3a0936fe	0.000523433
188	0xb99376e0	-0.00028126594
189	0x394fe1fe	0.00019825247
190	0x3a1c0737	0.0005952003
191	0x39e4954c	0.00043598784
192	0x3a0860dd	0.0005202422
193	0xb9cdbb18	-0.00039240043
194	0x39f80722	0.0004730756
195	0xb9d0e24e	-0.00039841462
196	0xb95e76be	-0.00021215805
197	0x3a07dc4f	0.000518267
198	0xb9b12ec5	-0.00033794917
199	0x3956bdda	0.00020479356
200	0xb916bc7b	-0.00014375329
201	0xb8043db1	-3.1528707e-05
202	0x38d35627	0.00010077311
203	0x3a029581	0.0004981384
204	0xb9dd4c81	-0.00042209405
205	0x39c971cf	0.00038422502
206	0xb9594dce	-0.00020723717
207	0x39970bed	0.0002880985
208	0xb93db3ad	-0.00018091379
209	0x39d41d44	0.00040457596
210	0xb9dba349	-0.00041892592
211	0xb950d95e	-0.00019917401
212	0x3a0bc702	0.00053320837
213	0xb9f00dd6	-0.00045786676
214	0x39c2b980	0.00037140772
215	0x39e17b1b	0.00043007065
216	0xb97b6c56	-0.00023977584
217	0xb93ee5aa	-0.00018205369
218	0xb9e1f89b	-0.0004310057
219	0x39d3cf0c	0.00040399318
220	0xb8338196	-4.2797612e-05
221	0x39211246	0.00015360964
222	0xb93914ea	-0.00017650766
223	0xb9a09b37	-0.00030633222
224	0xba0f08b4	-0.0005456314
225	0xba058f49	-0.00050948985
226	0x39e8cb5a	0.00044401997
227	0xb936fcfe	-0.0001745112
228	0xb9ba93b0	-0.0003558672
229	0xb9a63df7	-0.00031708155
230	0x3990dd3a	0.00027630647
231	0x386e58aa	5.6826197e-05
232	0xb92dc769	-0.00016572852
233	0xb99dc93f	-0.00030095314
234	0xb91a82cd	-0.00014735312
235	0x39045be1	0.00012622729
236	0x390e5e46	0.00013577295
237	0x38833310	6.256078e-05
238	0xb9a61567	-0.00031677933
239	0x3a041a53	0.0005039323
240	0x393c8b34	0.00017980934
241	0xba010155	-0.0004921158
242	0xb90c01e3	-0.00013352143
243	0xb800b67b	-3.0687526e-05
244	0xb9fb8c28	-0.00047978875
245	0x3979c18b	0.00023818591
246	0xb9e79259	-0.0004416879
247	0xb8bd9b1d	-9.0411144e-05
248	0xb9d9279d	-0.0004141898
249	0x3982c20c	0.00024940108
250	0xb936f9cd	-0.0001744993
251	0x39d10ca9	0.0003987302
252	0x39a06777	0.00030594665
253	0x3958c171	0.00020671428
254	0xb9451c43	-0.00018797912
255	0x39f0235a	0.00045802706
