CNN Activity/CNN_Fruits/model.tflite (tflite, 673224 bytes, 10 tensors)

arith.constant f4 [32]
0.0028478971 0.007836566 -0.0069301813 -0.0056279805 0.021472525 -0.0059727714 -0.009718943 -0.007096856
-0.0058207647 0.00903286 0.011164968 0.0046255724 0.012358115 0.0047658863 -0.012102414 0.0
-0.010322766 -0.005953082 0.009904261 0.00041045115 0.0015522091 -0.0056172353 0.006772319 0.008635589
0.0 0.0066099637 -0.0076554506 -0.00874915 0.0075351754 0.009132183 -0.0070617795 -0.0060645225
00000000: c9a3 3a3b f164 003c 9316 e3bb ec6a b8bb
00000010: 26e7 af3c 3db7 c3bb 343c 1fbc be8c e8bb
00000020: 1dbc bebb 90fe 133c 45ed 363c 1d92 973b
00000030: b179 4a3c 272b 9c3b 3449 46bc 0000 0000
00000040: d220 29bc 1212 c3bb 7b45 223c d231 d739
00000050: 7f73 cb3a c910 b8bb 54ea dd3b 497c 0d3c
00000060: 0000 0000 6598 d83b 93da fabb 9858 0fbc
00000070: a2e9 f63b 279f 153c 8066 e7bb e7b8 c6bb

arith.constant1 f4 [32]
0.00040663057 0.00945013 -0.0059132646 0.012201455 0.015480108 0.014199408 0.008458892 0.017528554
-0.0041511236 0.006413653 0.015282164 0.011252729 -0.0003904072 -0.00045336303 -0.005512713 -0.009582006
-0.0021390698 0.01893682 -0.012971667 -0.0092807785 0.0 0.0059817904 -0.006213084 0.012810525
-0.011163738 -0.0033182201 0.007735882 -0.0053219316 0.014977324 0.00072737015 -0.009113043 -0.009663934
00000000: 0831 d539 b8d4 1a3c 0fc4 c1bb 9de8 473c
00000010: 47a0 7d3c a2a4 683c 2a97 0a3c 0b98 8f3c
00000020: 2606 88bb 9f29 d23b 0b62 7a3c 5e5d 383c
00000030: 91af ccb9 5bb1 edb9 fda3 b4bb d9fd 1cbc
00000040: a32f 0cbb 6421 9b3c 1d87 54bc 680e 18bc
00000050: 0000 0000 e502 c43b 2097 cbbb 3ce3 513c
00000060: 1ce8 36bc 7f76 59bb 487d fd3b 9963 aebb
00000070: 7363 753c fcac 3e3a df4e 15bc 7a55 1ebc

arith.constant2 f4 [32]
0.007306371 0.016971303 -0.00940142 -0.0064619477 0.014060625 0.011373246 0.0017442941 0.009356088
-0.0058535226 -0.009873766 -0.0064596278 -0.010154552 -0.013815077 0.00023810496 0.010462129 0.00893815
0.0035287677 0.017730797 -0.021632085 -0.00550404 0.009626735 -0.0009230788 0.0 0.0072807516
0.005911749 0.017049795 -0.009862556 0.0 -0.009851081 0.010320884 0.008108597 0.015461799
00000000: 486a ef3b 6707 8b3c 6a08 1abc bfbe d3bb
00000010: 895e 663c da56 3a3c cca0 e43a 474a 193c
00000020: e8ce bfbb 94c5 21bc 49ab d3bb 475f 26bc
00000030: a258 62bc d0ab 7939 5969 2b3c 5171 123c
00000040: e642 673b 2d40 913c c535 b1bc 3c5b b4bb
00000050: 74b9 1d3c c5fa 71ba 0000 0000 5f93 ee3b
00000060: 58b7 c13b 03ac 8b3c 8f96 21bc 0000 0000
00000070: 6e66 21bc ed18 293c ecd9 043c 7c53 7d3c

arith.constant3 f4 [32, 3, 3, 32]
-0.0023519276 0.030843398 0.014173389 -0.05296101 0.0460662 0.005047399 0.07321138 0.08766828
0.066533364 -0.03582878 0.016662356 -0.082069516 -0.07032915 -0.06269758 0.0143435905 -0.06510197
-0.004636704 0.0632335 0.07785218 -0.02865926 0.0472755 -0.037054136 0.0423658 -0.089800194
0.042834044 0.105338655 -0.033608384 -0.017649682 0.0016862154 0.072378576 0.09555396 -0.06988145
-0.014398193 0.05534739 -0.075915724 0.06461466 0.018620884 -0.049094137 0.08161043 -0.027368866
4.592497e-05 -0.06708035 0.024644932 -0.06667954 0.008876997 0.061104614 0.02347812 -0.056140155
0.045014575 -0.06394576 0.016407592 -0.0056520384 -0.098566644 -0.009394676 -0.008514559 -0.057714697
-0.04360872 0.010943071 0.035079967 0.023114538 0.09509794 -0.015472408 0.07635224 0.09048988
-0.0075811786 0.07448809 0.0060211364 0.023975095 0.0036834993 0.027290197 -0.07754912 -0.056635458
0.03131822 -0.0296828 -0.0036015776 0.04375377 -0.026388865 -0.048696164 0.09992772 -0.057135787
0.067225955 -0.032423023 0.1090896 -0.06105194 -0.09511335 0.10425831 0.09449563 -0.047156826
-0.01851353 0.05862408 -0.040440522 -0.021932008 0.023390437 0.056935087 -0.07540086 -0.08004516
0.10106443 0.029272076 0.044391662 -0.097229 0.030565225 -0.057743598 -0.06536203 0.068461046
-0.092230104 -0.008938933 -0.067968465 0.11437974 -0.017805396 0.09669699 0.0629479 -0.017176421
-0.08176456 0.06412021 -0.017834753 -0.06817547 -0.07715244 -0.005569448 -0.054155692 0.049258914
-0.08279862 0.031859238 0.10908076 -0.0016512312 -0.0026493778 -0.09749728 -0.065297775 -0.008863529
-0.023676341 -0.10030699 -0.07440563 -0.08321699 0.11872425 -0.08912525 0.041827038 0.020979818
0.042716064 0.02629706 -0.015317304 0.0048660245 0.10375292 -0.06492811 -0.07795807 0.037517924
0.03173001 -0.049797677 0.07689608 -0.09493845 0.06476472 -0.075899035 -0.034287643 0.08723669
0.05965291 -0.0007090439 -0.039823424 -0.046405587 -0.028633995 -0.028762393 0.10188518 0.08126612
-0.027337942 0.08496001 0.074560866 -0.09715737 0.08879829 -0.013685098 -0.019432597 0.055674627
-0.06385413 -0.0116795795 -0.0036113518 -0.050609916 -0.023466857 0.019043943 0.026696546 -0.021164665
-0.08299168 -0.036944058 0.075334884 -0.03473506 0.022565834 -0.08721359 -0.023655578 0.0791705
0.035072148 0.06292494 -0.055788785 0.033678148 -0.029732207 -0.009172247 0.057498615 0.0060690134
-0.025903435 0.016523467 -0.017470937 -0.010035498 0.055021558 -0.067741305 0.007470822 -0.061107773
0.061808735 -0.01129644 0.097711906 -0.0146832 -0.009028497 -0.02999472 -0.011581996 -0.04733038
-0.014635614 -0.041552845 0.013612432 -0.06538478 -0.07647363 0.04283019 -0.09347815 0.044503886
0.041292246 0.033799104 0.061000977 0.05266758 0.030472636 -0.066881165 -0.03905444 -0.061292376
-0.025003787 0.010015548 0.035426155 0.065134026 0.006121111 -0.11440706 -0.023776792 0.027839884
0.03530934 -0.07485034 -0.0073135626 0.09366199 0.07383037 -0.07904858 -0.083517246 -0.089426845
0.017567676 -0.07988645 0.025402918 -0.056386724 -0.0761817 0.008710003 -0.00021894423 -0.048602868
-0.024277467 -0.036872674 0.060741514 -0.009768914 0.119445235 -0.081663184 0.000423679 -0.022254065
00000000: cc22 1abb 4bab fc3c 8137 683c a5ed 58bd
00000010: e9af 3c3d a764 a53b d9ef 953d 6d8b b33d
00000020: a542 883d 33c1 12bd 7e7f 883c 1014 a8bd
00000030: bb08 90bd 9767 80bd 6101 6b3c 2f54 85bd
00000040: 7eef 97bb 9180 813d f770 9f3d d3c6 eabc
00000050: f4a3 413d 14c6 17bd c387 2d3d 2ae9 b7bd
00000060: c072 2f3d cbbb d73d f2a8 09bd 1196 90bc
00000070: 0004 dd3a 383b 943d cbb1 c33d 011e 8fbd
00000080: 66e6 6bbc f2b3 623d b479 9bbd b154 843d
00000090: d38a 983c ef16 49bd 5e23 a73d ac34 e0bc
000000a0: 909f 4038 6c61 89bd 2be4 c93c 488f 88bd
000000b0: d370 113c d548 7a3d 3055 c03c 38f3 65bd
000000c0: 3461 383d fff5 82bd 3769 863c bc34 b9bb
000000d0: 4fdd c9bd 21ec 19bc a680 0bbc 3f66 6cbd
000000e0: 0f9f 32bd 914a 333c 03b0 0f3d b35a bd3c
000000f0: b5c2 c23d fc7f 7dbc 905e 9c3d c252 b93d
00000100: 896b f8bb 368d 983d f44c c53b 6b67 c43c
00000110: dd66 713b b18f df3c 13d2 9ebd 95fa 67bd
00000120: 8947 003d 5829 f3bc 7208 6cbb 2737 333d
00000130: 762d d8bc a175 47bd e8a6 cc3d 3707 6abd
00000140: c3ad 893d 01ce 04bd 5e6a df3d 9911 7abd
00000150: caca c2bd 6185 d53d ed86 c13d 8427 41bd
00000160: b0a9 97bc ce1f 703d f6a4 25bd c1aa b3bc
00000170: 4d9d bf3c c434 693d c46b 9abd b8ee a3bd
00000180: defa ce3d fecb ef3c 08d4 353d ff1f c7bd
00000190: ec63 fa3c 8d84 6cbd 87dc 85bd 4e35 8c3d
000001a0: 23e3 bcbd 9a74 12bc 0d33 8bbd ed3f ea3d
000001b0: 9fdc 91bc 1209 c63d d4ea 803d 91b5 8cbc
000001c0: 2d74 a7bd 7551 833d 301a 92bc 959f 8bbd
000001d0: 1902 9ebd eb7f b6bb 5cd2 5dbd b7c3 493d
000001e0: 5392 a9bd d57e 023d bc65 df3d 206e d8ba
000001f0: 2fa1 2dbb a7ac c7bd d7ba 85bd 5638 11bc
00000200: e3f4 c1bc c06d cdbd fb61 98bd ab6d aabd
00000210: b325 f33d 4d87 b6bd d452 2b3d dedd ab3c
00000220: 0af7 2e3d ef6c d73c 6ef5 7abc 2c73 9f3b
00000230: 697c d43d 07f9 84bd 7ba8 9fbd 65ac 193d
00000240: 54f7 013d a6f8 4bbd b17b 9d3d 176f c2bd
00000250: 5ea3 843d f470 9bbd 3371 0cbd 26a9 b23d
00000260: 9c56 743d 21df 39ba e31d 23bd c913 3ebd
00000270: d791 eabc 1c9f ebbc 2da9 d03d da6e a63d
00000280: d2f3 dfbc 84ff ad3d 5eb3 983d 71fa c6bd
00000290: e1db b53d 7637 60bc 1c31 9fbc 140b 643d
000002a0: f4c5 82bd b55b 3fbc 6eac 6cbb 584c 4fbd
000002b0: 913d c0bc 0b02 9c3c b7b2 da3c 8561 adbc
000002c0: 8bf7 a9bd a752 17bd 2d49 9a3d 5a46 0ebd
000002d0: fcdb b83c 0a9d b2bd 58c9 c1bc 2524 a23d
000002e0: d0a7 0f3d cade 803d c882 64bd 19f2 093d
000002f0: f590 f3bc 3147 16bc ab83 6b3d 93de c63b
00000300: 7133 d4bc 395c 873c 361f 8fbc ee6b 24bc
00000310: 495e 613d f4bb 8abd cccd f43b 254c 7abd
00000320: 282b 7d3d b414 39bc 2e1d c83d ce91 70bc
00000330: 43ec 13bc 7db7 f5bc 6ac2 3dbc 80dd 41bd
00000340: 37ca 6fbc 5133 2abd ae06 5f3c 75e8 85bd
00000350: 359e 9cbd b66e 2f3d 7971 bfbd b549 363d
00000360: 0f22 293d ee70 0a3d 29dc 793d f6b9 573d
00000370: c0a1 f93c fef8 88bd 8cf7 1fbd b70d 7bbd
00000380: bed4 ccbc 4118 243c 041b 113d fd64 853d
00000390: 9a93 c83b 404e eabd 8cc7 c2bc 7810 e43c
000003a0: 87a0 103d 234b 99bd 9ca6 efbb dbd1 bf3d
000003b0: 6134 973d 39e4 a1bd 170b abbd 6c25 b7bd
000003c0: 16ea 8f3c 829b a3bd c819 d03c c4f5 66bd
000003d0: 2705 9cbd 67b4 0e3c 6594 65b9 cd13 47bd
000003e0: 8ae1 c6bc cd07 17bd 18cc 783d cc0d 20bc
000003f0: b49f f43d 073f a7bd 3c21 de39 284e b6bc

arith.constant4 f4 [32, 3, 3, 32]
-0.042783678 -0.07924821 0.071859196 -0.0730031 0.082105465 0.08454729 -0.0013079774 0.10950309
-0.101966195 -0.04459307 0.08192643 -0.037117127 -0.044484098 0.020341717 0.089391775 0.09247164
0.11147405 0.06512462 0.00592931 -0.031596083 0.03220454 -0.04567806 0.083585724 -0.10127593
-0.05217986 0.048791904 -0.034479916 0.00675644 -0.09072874 0.123786554 0.06912423 -0.042771306
0.10974188 -0.09563883 0.07191621 0.09354067 -0.00052118686 -0.023121648 0.10519218 0.11558828
-0.047126874 -0.07082337 -0.063944146 0.07418972 0.059993014 0.022826064 0.044976804 -0.014377656
-0.018045973 0.02420954 -0.0044952994 -0.092979036 0.072753824 0.0027141003 0.07625012 -0.07239965
0.06798465 -0.013962776 -0.037679564 -0.012085713 0.09967205 0.01788056 -0.060347084 0.08042729
0.021458913 0.04577171 -0.039110616 0.024798019 0.003897183 0.029407714 -0.051442247 0.041061837
0.00788338 0.04924577 0.049561944 -0.057694994 -0.025925914 0.080226265 -0.014442916 -0.022837909
0.09569085 0.038029965 -0.024315258 -0.09626367 -0.07843137 0.043768622 -0.078915834 0.09089924
0.045977637 0.09582443 -0.0038076867 0.068627685 0.0076192366 0.02116514 -0.0013110527 0.108537965
0.042328585 -0.0792365 -0.0022003353 0.005750556 -0.10977669 0.06753803 0.058332805 0.08513566
0.010677732 -0.008589654 0.046227694 0.08992143 0.009166622 -0.072512716 0.031651523 0.08574946
0.06698658 -0.020249112 0.08430369 0.03889303 0.057419736 0.04613744 -0.09531321 0.041007638
0.09260311 0.03154247 -0.0071931225 -0.014130898 0.079044364 -0.0054499344 0.083235085 0.07716592
0.013593474 0.082160376 0.048697084 -0.0711411 -0.0278927 -0.013207996 -0.027446447 -0.014107607
-0.07845647 -0.05139143 -0.024252253 -0.037314795 -0.05733606 -0.08198621 -0.057300564 0.06779932
-0.029625455 0.0004944948 -0.03093889 0.026106356 -0.056121495 -0.051379193 -0.03269405 -0.0018894675
-0.021061491 0.013170623 -0.030702973 0.03133741 0.035542876 0.03053499 0.020624114 0.0075263465
-0.056704897 -0.06330813 0.05814664 0.03523763 -0.12495424 -0.03784237 0.06985512 -0.041490622
-0.012237143 0.012125888 -0.07904447 -0.07284289 -0.07340711 0.074150026 -0.016566582 0.036868792
-0.057706077 -0.05017582 0.011007272 0.041571908 0.062234882 0.016757865 -0.101047665 -0.09690411
0.06159096 0.0022182157 -0.079133995 0.07506628 0.08018588 0.102272 0.057332046 -0.08813038
0.013682653 -0.017043842 -0.04874717 -0.046945278 -0.10820541 -0.0750006 0.03014787 -0.09309772
0.038685847 0.07815445 0.026839778 -0.011783979 0.009339379 0.0032084184 -0.015254568 0.0397444
-0.06887791 -0.051417034 -0.077743985 -0.057962216 -0.06346768 0.0700845 0.049849495 -0.06443758
-0.088389345 -0.06072368 0.033039078 0.022459574 0.041696608 -0.007910131 0.055124078 0.05020478
0.011551798 0.0836312 -0.092930324 -0.06409495 0.03884093 -0.041703347 -0.037905652 0.06922876
0.01679294 0.040252727 -0.049704608 -0.020376645 0.011463409 -0.056921966 0.09539002 -0.07325074
-0.032036968 0.002031837 -0.019667864 -0.0042486116 -0.061486475 0.050861288 -0.023340836 0.06429057
-0.03748356 0.07275793 0.0622289 0.046728954 -0.08830376 -0.02047958 0.018146764 -0.040581997
00000000: f03d 2fbd e34c a2bd ea2a 933d a682 95bd
00000010: e926 a83d 2127 ad3d 7070 abba 2843 e03d
00000020: a7d3 d0bd 39a7 36bd 0bc9 a73d 2108 18bd
00000030: f534 36bd aca3 a63c 0913 b73d c561 bd3d
00000040: 824c e43d 0f60 853d a84a c23b e56a 01bd
00000050: e8e8 033d eb18 3bbd fe2e ab3d c169 cfbd
00000060: 8dba 55bd 05da 473d d03a 0dbd 2065 dd3b
00000070: fdcf b9bd ce83 fd3d 0191 8d3d f730 2fbd
00000080: 5ac0 e03d 4ade c3bd ce48 933d 4092 bf3d
00000090: 42a0 08ba 9c69 bdbc ff6e d73d 8cb9 ec3d
000000a0: 1c08 41bd d80b 91bd 26f5 82bd c8f0 973d
000000b0: 3cbb 753d bafd ba3c 9939 383d 4390 6bbc
000000c0: 26d5 93bc 1653 c63c 4e4d 93bb cb6b bebd
000000d0: f5ff 943d 0cdf 313b 0629 9c3d 4546 94bd
000000e0: 893b 8b3d 21c4 64bc e355 1abd 2803 46bc
000000f0: dc20 cc3d 417a 923c 812e 77bd 10b7 a43d
00000100: 9aca af3c 1e7b 3b3d 7432 20bd 3725 cb3c
00000110: e267 7f3b 72e8 f03c 1bb5 52bd 7530 283d
00000120: 4b29 013c efb5 493d 7701 4b3d 9651 6cbd
00000130: 9562 d4bc ab4d a43d fba1 6cbc 9116 bbbc
00000140: 90f9 c33d 4fc5 1b3d cb30 c7bc e325 c5bd
00000150: a0a0 a0bd ba46 333d a09e a1bd 6129 ba3d
00000160: 0c53 3c3d 993f c43d 628a 79bb ac8c 8c3d
00000170: caaa f93b 8462 ad3c a1d7 abba 2749 de3d
00000180: bd60 2d3d bf46 a2bd 8033 10bb 296f bc3b
00000190: 9ad2 e0bd 6151 8a3d 61ee 6e3d 9b5b ae3d
000001a0: a7f1 2e3c 9fbb 0cbc 4059 3d3d ba28 b83d
000001b0: 992f 163c 8c81 94bd 07a5 013d 6a9d af3d
000001c0: 4330 893d 77e1 a5bc 6aa7 ac3d 4c4e 1f3d
000001d0: f530 6b3d 9dfa 3c3d 9233 c3bd a0f7 273d
000001e0: b3a6 bd3d ad32 013d 49b4 ebbb 4885 67bc
000001f0: 03e2 a13d 5d95 b2bb 2877 aa3d 2a09 9e3d
00000200: 2ab7 5e3c b343 a83d 9876 473d 6db2 91bd
00000210: 3b7f e4bc 5a66 58bc 5fd7 e0bc 9823 67bc
00000220: c9ad a0bd d27f 52bd a9ac c6bc 66d7 18bd
00000230: 37d9 6abd 63e8 a7bd ffb3 6abd 5fda 8a3d
00000240: 15b1 f2bc fca0 013a 8e73 fdbc ffdc d53c
00000250: a7df 65bd fd72 52bd 32ea 05bd 02a8 f7ba
00000260: 2689 acbc 99c9 573c cd84 fbbc a85b 003d
00000270: 6895 113d 8424 fa3c e7f3 a83c 929f f63b
00000280: 6543 68bd b1a7 81bd 2c2b 6e3d 5555 103d
00000290: 02e8 ffbd 9a00 1bbd 3310 8f3d 12f2 29bd
000002a0: 4c7e 48bc a9ab 463c 11e2 a1bd a72e 95bd
000002b0: 7856 96bd f8db 973d a4b6 87bc bb03 173d
000002c0: 355d 6cbd 2985 4dbd d857 343c 4e47 2a3d
000002d0: 01ea 7e3d ca47 893c 14f2 cebd a975 c6bd
000002e0: cd46 7c3d 7c5f 113b 0111 a2bd 5abc 993d
000002f0: 7f38 a43d fb73 d13d 02d5 6a3d b37d b4bd
00000300: 352d 603c 879f 8bbc 1dab 47bd b149 40bd
00000310: cc9a ddbd ea99 99bd aaf8 f63c 04aa bebd
00000320: 0d75 1e3d 710f a03d 18df db3c 9711 41bc
00000330: 3204 193c 5444 523b 4cee 79bc 06cb 223d
00000340: dd0f 8dbd ab9a 52bd 3d38 9fbd ca69 6dbd
00000350: 58fb 81bd 7688 8f3d fc2e 4c3d daf7 83bd
00000360: 7905 b5bd 65b9 78bd fc53 073d 24fd b73c
00000370: 10ca 2a3d 7e99 01bc c9c9 613d 87a3 4d3d
00000380: c143 3d3c d646 ab3d 4152 bebd 3744 83bd
00000390: ab17 1f3d 21d1 2abd f542 1bbd cfc7 8d3d
000003a0: 5991 893c 0be0 243d 0f97 4bbd ecec a6bc
000003b0: 06d1 3b3c 0227 69bd d85b c33d 7c04 96bd
000003c0: 3239 03bd 9128 053b 801e a1bc f037 8bbb
000003d0: 3ed9 7bbd ed53 503d 4835 bfbc c6aa 833d
000003e0: 5d88 19bd 1c02 953d bbe3 7e3d dc66 3f3d
000003f0: 9ad8 b4bd cbc4 a7bc 86a8 943c 4f39 26bd

arith.constant5 f4 [3, 128]
0.0012078531 0.090820715 -0.20537066 -0.18521155 0.09968969 -0.11072721 -0.19578984 -0.20003834
-0.0064019384 0.116392955 -0.0375974 -0.09281338 0.092312366 -0.22411458 -0.025824416 0.1419954
0.021669451 -0.14587666 -0.049235553 0.06797767 -0.00067969726 0.10975925 -0.070759706 -0.19334807
-0.16546369 -0.18250446 -0.05314885 -0.070131354 -0.06094119 -0.12587269 -0.20066698 0.08054374
0.030959453 0.08820857 0.039570227 -0.14357832 -0.1286088 -0.05708142 0.13564238 -0.089495175
0.039539356 -0.18317337 0.24047618 -0.07755901 -0.2160522 -0.15132986 0.02877049 -0.08604461
-0.040364273 0.1706514 0.008388376 -0.05474938 -0.028191553 0.17888603 0.048131853 -0.13895486
0.044203073 0.09584518 -0.19160137 -0.044919286 0.048102707 0.07434471 -0.05044106 -0.09386601
-0.017300602 -0.22174606 0.121828094 0.059366737 0.117770255 -0.16032259 0.1780198 -0.108971335
-0.18171006 0.12991105 0.0370705 -0.036062587 0.20923224 -0.034630258 -0.18676506 -0.0076775253
0.13905565 -0.12763324 -0.07888626 0.057194307 0.1434243 -0.20969729 0.1889447 -0.046488717
0.13573427 0.20452227 -0.16982004 0.06585338 -0.19072731 0.028508674 0.17585216 -0.0112324245
0.017525965 -0.051173523 0.1283468 -0.10039304 -0.1906925 -0.13923833 -0.02716688 0.13282247
0.03532951 0.09855078 -0.024738604 -0.14389594 0.06442905 -0.052726727 0.0059508802 0.041258983
-0.113481835 -0.16213582 -0.050627053 0.018523354 -0.19773473 0.025461555 -0.21429358 -0.021340586
0.057419997 -0.17393085 -0.1038626 0.10302521 -0.20883489 -0.17564267 0.18098527 0.11581738
0.18623763 -0.12967801 -0.13503888 -0.14928982 -0.02023925 0.20590565 -0.03765517 -0.15206493
-0.19631223 0.07771714 0.027597543 0.026286863 0.17061602 -0.00333365 0.007038403 -0.0513608
-0.11053337 -0.04621828 -0.03302237 -0.21704164 -0.14255461 -0.12714796 0.15470861 -0.1224734
0.07323981 0.17633359 -0.12554526 0.14245357 -0.11790736 0.061548896 -0.16920272 0.116284475
0.029736599 -0.1282042 0.10707356 -0.016806915 -0.17931633 -0.20626724 -0.118278384 -0.010292773
0.16062263 0.12796204 0.016181981 0.024469003 0.21701623 0.08305322 0.07802027 -0.15413694
-0.14586791 0.15250753 0.09843901 0.020415515 0.14645225 -0.09510835 0.12369194 -0.11331696
-0.07927896 0.21254416 -0.08651127 0.046213128 0.091406584 0.099659875 -0.055914976 0.023864413
0.1858863 -0.03352399 -0.017249824 -0.15787324 -0.20436813 0.21153606 -0.18067133 0.108604714
0.1832881 -0.016737968 0.12573823 0.016872218 0.1923209 -0.20992002 0.0725408 0.031731263
-0.21329656 0.09046164 0.10385089 -0.14534469 0.10567697 0.07413794 0.031457916 -0.025607094
-0.043278974 0.049114306 0.10193317 0.14846092 -0.18977396 0.061245702 -0.040623914 -0.138175
0.18722904 0.028360914 -0.18309498 -0.01985389 -0.20452406 0.1140302 0.2181617 -0.02664475
-0.18935847 -0.02781655 -0.1646203 0.20581402 -0.07855639 0.15404363 0.16530232 0.097538315
0.08151853 0.15837483 0.04129242 0.053963568 -0.08020061 -0.12124315 -0.15288043 0.026126942
-0.092586786 -0.21125318 -0.051537678 -0.14571275 0.19285285 -0.17212021 -0.09360836 -0.063840516
00000000: d350 9e3a 3600 ba3d b04c 52be 19a8 3dbe
00000010: 1c2a cc3d f3c4 e2bd 227d 48be dad6 4cbe
00000020: 5ac7 d1bb 6e5f ee3d bbff 19bd f114 bebd
00000030: 440e bd3d 4b7e 65be ba8d d3bc 3e67 113e
00000040: 2284 b13c b160 15be 38ab 49bd e037 8b3d
00000050: b62d 32ba 75c9 e03d 77ea 90bd 09fd 45be
00000060: 506f 29be 73e2 3abe 9cb2 59bd 07a1 8fbd
00000070: 789d 79bd c5e4 00be a57b 4dbe 1ef4 a43d
00000080: ae9e fd3c b2a6 b43d 6414 223d 3206 13be
00000090: 06b2 03be 35ce 69bd d6e5 0a3e 3f49 b7bd
000000a0: 05f4 213d cd91 3bbe 633f 763e 42d7 9ebd
000000b0: ca3c 5dbe 37f6 1abe 17b0 eb3c 2838 b0bd
000000c0: 0255 25bd 3ebf 2e3e 666f 093c e340 60bd
000000d0: f9f1 e6bc e62d 373e e825 453d 2f4a 0ebe
000000e0: 480e 353d 7a4a c43d 2633 44be 49fd 37bd
000000f0: 5807 453d 0a42 983d 499b 4ebd d33c c0bd
00000100: feb9 8dbc 6611 63be 0281 f93d 892a 733d
00000110: 8831 f13d 9b2b 24be d34a 363e 5d2c dfbd
00000120: 3412 3abe 6707 053e 3dd7 173d 5db6 13bd
00000130: fa40 563e 75d8 0dbd 573f 3fbe c093 fbbb
00000140: 9b64 0e3e 4ab2 02be 1f8f a1bd 9444 6a3d
00000150: d2dd 123e e3ba 56be b87a 413e f46a 3ebd
00000160: edfd 0a3e 496e 513e 4ee5 2dbe 23de 863d
00000170: 054e 43be 068b e93c 9712 343e 3408 38bc
00000180: 9d92 8f3c 549b 51bd 586d 033e de9a cdbd
00000190: e544 43be 7e94 0ebe 148d debc 9d02 083e
000001a0: adb5 103d fed4 c93d 9da8 cabc 7559 13be
000001b0: 61f3 833d fbf7 57bd 9aff c23b 2eff 283d
000001c0: 2a69 e8bd ef06 26be 505e 4fbd 4abe 973c
000001d0: f97a 4abe c094 d03c c76f 5bbe 74d2 aebc
000001e0: 3b31 6b3d ee1a 32be eab5 d4bd e2fe d23d
000001f0: d0d8 55be acdb 33be 3454 393e aa31 ed3d
00000200: 14b5 3e3e 50ca 04be a247 0abe 6edf 18be
00000210: c9cc a5bc eed8 523e 4f3c 1abd e9b6 1bbe
00000220: 1306 49be 2a2a 9f3d 3e14 e23c 8c57 d73c
00000230: f7b5 2e3e 5e79 5abb 67a2 e63b b45f 52bd
00000240: 525f e2bd 614f 3dbd 7742 07bd 2a40 5ebe
00000250: d6f9 11be 1333 02be ef6b 1e3e 55d3 fabd
00000260: c1fe 953d cb90 343e f08e 00be 59df 113e
00000270: 6a79 f1bd b21a 7c3d 7a43 2dbe 8e26 ee3d
00000280: 2b9a f33c f647 03be 6249 db3d a8ae 89bc
00000290: b39e 37be b837 53be f03b f2bd 05a3 28bc
000002a0: 427a 243e 7b08 033e 1390 843c 3873 c83c
000002b0: 8139 5e3e ce17 aa3d 17c9 9f3d 13d6 1dbe
000002c0: 665e 15be ef2a 1c3e 649a c93d 703e a73c
000002d0: 94f7 153e 2bc8 c2bd 3352 fd3d b912 e8bd
000002e0: 025d a2bd 2da5 593e d22c b1bd fa49 3d3d
000002f0: 6033 bb3d 7a1a cc3d 1a07 65bd 4d7f c33c
00000300: fa58 3e3e 7450 09bd 814f 8dbc 86a9 21be
00000310: e145 51be e99c 583e e801 39be 266c de3d
00000320: e0af 3b3e 101e 89bc 86c1 003e 9b37 8a3c
00000330: c5ef 443e 46f5 56be 4590 943d a4f8 013d
00000340: 6a6a 5abe f443 b93d c7af d43d 3dd5 14be
00000350: 2b6d d83d a2d5 973d 04da 003d f8c5 d1bc
00000360: 4b45 31bd 152c 493d 56c2 d03d 2406 183e
00000370: 1b54 42be c6dc 7a3d 4365 26bd bf7d 0dbe
00000380: f8b8 3f3e 2655 e83c 407d 3bbe a0a4 a2bc
00000390: c16e 51be aa88 e93d c865 5f3e 1746 dabc
000003a0: 30e7 41be 89df e3bc 3992 28be e9c0 523e
000003b0: 2ce2 a0bd 9dbd 1d3e 0345 293e 2bc2 c73d
000003c0: 30f3 a63d 032d 223e 3e22 293d e708 5d3d
000003d0: 3840 a4bd 544e f8bd b08c 1cbe 2b08 d63c
000003e0: 249e bdbd c152 58be 2c19 53bd b935 15be
000003f0: 387b 453e 4840 30be bdb5 bfbd d1be 82bd

arith.constant6 f4 [128, 1152]
-0.028042486 0.0036145658 0.027254784 -0.07683345 -0.02110974 0.06530434 0.058568582 -0.016699726
-0.025451846 0.016470049 0.040949598 -0.0023223031 -0.026497167 0.020532075 -0.005637242 0.058039993
-0.019545563 0.058060028 0.057957266 0.008674506 0.054991227 0.0060457913 -0.0037307693 -0.049879223
-0.04611042 -0.04766153 -0.041089587 0.036117066 0.032097608 0.06024587 -0.041646913 0.012579053
-0.0013124987 0.0008650625 0.016966151 0.025628038 -0.011889675 -0.062010445 0.039906148 -0.07419507
-0.037655123 -0.07802149 -0.04869799 0.035265032 -0.055645093 -0.048001986 -0.02092389 -0.0018138885
0.005212225 -0.02841518 -0.024990045 -0.0059237396 0.03430286 0.037832867 0.0042939303 0.025890704
0.04304315 -0.091413446 0.0040880674 -0.029869752 -0.01032571 -0.041489217 -0.0008326856 0.028664514
-0.04732301 -0.032816686 0.042295173 0.013122771 0.039087195 0.059489936 -0.056714036 -0.00037787153
-0.0130755715 -0.048497453 -0.0048885145 -0.07514421 0.01968305 -0.081208445 0.013321941 -0.04900002
-0.012016229 0.04048271 0.03706325 -0.0768551 0.05726533 0.0058207046 -0.025264347 0.035487775
0.003045164 -0.04714123 0.029925574 0.052448764 -0.071844146 0.010839836 0.05332964 0.05785511
0.00700765 -0.07377265 0.0238829 0.06053453 -0.04424043 -0.024131984 0.010382086 -0.07488948
-0.012762342 0.016083555 0.006487324 -0.05575841 0.019842945 0.015318427 -0.06907606 -0.030706055
-0.002805993 0.02256647 0.027312268 0.03730453 -0.015382985 0.02650995 0.04557174 0.02415057
0.051302142 0.004265339 -0.020856377 -0.04504846 0.042955823 0.06317403 0.059143953 -0.033150673
0.010199638 0.0054007675 -0.0022789259 0.03385338 0.06952336 0.028171375 0.029528618 -0.068292536
0.021377929 -0.026058447 -0.09240196 -0.020932533 0.052456733 -0.057897985 0.0068393983 0.015051521
-0.036970977 -0.028266767 0.030506821 -0.041857377 -0.058535203 0.04168402 -0.064602114 -0.06152845
-0.04583367 0.026749147 0.01315061 -0.05260629 -0.019429995 0.0007906358 -0.0033756585 -0.009698592
-0.06001833 -0.057449955 -0.03391835 0.012123253 -0.03738902 -0.018048968 0.017850757 0.015630197
0.012074083 0.06001886 0.020787824 -0.06961769 0.042700425 -0.0034557104 0.044628568 -0.051906094
0.009020061 0.009390666 0.0066384166 0.0069000437 -0.082015984 -0.044413563 0.081416614 0.016773839
0.041893266 -0.0154399555 -3.989757e-06 0.031708844 0.0005996527 -0.01046503 0.057190154 -0.06488992
0.013415858 -0.025205838 -0.05991205 -0.020858629 0.04726328 0.020025551 0.01791365 0.025550868
0.015406027 0.050318204 -0.06106456 0.062371578 0.011117119 0.027039701 -0.0067016557 -0.03643072
0.024947405 -0.015621796 0.03423421 -0.06031602 -0.07020864 -0.026667176 -0.021502716 -0.029284405
0.062306106 -0.083309606 0.011920647 0.004656416 -0.029275354 -0.056292217 0.0025908384 -0.010237752
0.027176667 -0.058939002 0.04440376 -0.049721822 -0.058205154 0.030757636 -0.06532196 -0.04623691
-0.011468716 -0.06971842 -0.067522004 -0.05137963 -0.05366592 -0.035269253 -0.044931084 0.028781675
-0.039883643 -0.015118618 -0.044811312 0.048874393 -0.00052347383 0.05083973 -0.05918636 -0.06061376
0.01081907 -0.04884151 0.07201127 0.05054444 -0.006989238 0.024485795 -0.05008381 -0.032928426
00000000: 5bb9 e5bc 5ae2 6c3b 6d45 df3c db5a 9dbd
00000010: 55ee acbc 48be 853d 9ce5 6f3d ddcd 88bc
00000020: 6480 d0bc 32ec 863c c4ba 273d c831 18bb
00000030: 9610 d9bc e232 a83c 9db8 b8bb 58bb 6d3d
00000040: 041e a0bc 5ad0 6d3d 9964 6d3d 841f 0e3c
00000050: 7b3e 613d c61b c63b ec7f 74bb 284e 4cbd
00000060: 48de 3cbd bd38 43bd 8e4d 28bd 7def 133d
00000070: c878 033d 60c4 763d f495 2abd 5f18 4e3c
00000080: 2608 acba 5dc5 623a 99fc 8a3c e4f1 d13c
00000090: e9cc 42bc aafe 7dbd a174 233d 96f3 97bd
000000a0: 423c 1abd bbc9 9fbd 8b77 47bd 1172 103d
000000b0: 1cec 63bd bb9d 44bd 9468 abbc 00c0 edba
000000c0: 50cb aa3b f4c6 e8bc ecb7 ccbc ee1b c2bb
000000d0: 2881 0c3d a3f6 1a3d 19b4 8c3b be18 d43c
000000e0: 044e 303d f936 bbbd 32f5 853b 69b1 f4bc
000000f0: 2b2d 29bc 99f0 29bd 9648 5aba d8d1 ea3c
00000100: c6d5 41bd ca6a 06bd b43d 2d3d e400 573c
00000110: e519 203d b8ab 733d fa4c 68bd 0f1d c6b9
00000120: ec3a 56bc 44a5 46bd d52f a0bb 35e5 99bd
00000130: 593e a13c 9d50 a6bd 4544 5a3c 3fb4 48bd
00000140: b8df 44bc 33d1 253d a2cf 173d 3566 9dbd
00000150: 0d8f 6a3d 9cbb be3b 2df7 cebc a15b 113d
00000160: 6091 473b 2a17 41bd 7a26 f53c 84d4 563d
00000170: 0623 93bd 9199 313c 2e70 5a3d 7bf9 6c3d
00000180: 6ea0 e53b 1d16 97bd 12a6 c33c 0ef3 773d
00000190: 7435 35bd 70b0 c5bc a019 2a3c a85f 99bd
000001a0: 2419 51bc a9c1 833c 9e93 d43b ee62 64bd
000001b0: ac8d a23c 24fa 7a3c c077 8dbd 448b fbbc
000001c0: c0e4 37bb 51dd b83c fabd df3c a3cc 183d
000001d0: ea08 7cbc 652b d93c 6fa9 3a3d 6bd7 c53c
000001e0: 3222 523d 42c4 8b3b feda aabc bc84 38bd
000001f0: 72f2 2f3d 6361 813d ee40 723d 00c9 07bd
00000200: 621c 273c ecf8 b03b 085a 15bb d7a9 0a3d
00000210: 4362 8e3d a8c7 e63c 00e6 f13c f5dc 8bbd
00000220: c420 af3c 8678 d5bc 3d3d bdbd b47a abbc
00000230: dfdc 563d 7026 6dbd 081d e03b a89a 763c
00000240: e16e 17bd b58f e7bc 71e9 f93c a472 2bbd
00000250: 9cc2 6fbd ddbc 2a3d 1d4e 84bd 4205 7cbd
00000260: 16bc 3bbd 0721 db3c a875 573c b179 57bd
00000270: a72b 9fbc ac42 4f3a 273a 5dbb d8e6 1ebc
00000280: c8d5 75bd a550 6bbd f8ed 0abd 9ca0 463c
00000290: 3b25 19bd 6edb 93bc c03b 923c e60a 803c
000002a0: 60d2 453c 56d6 753d 3a4b aa3c b893 8ebd
000002b0: a4e6 2e3d 3379 62bb 72cc 363d 7c9b 54bd
000002c0: e1c8 133c 4fdb 193c 1387 d93b c319 e23b
000002d0: fff7 a7bd ffea 35bd c1bd a63d 4a69 893c
000002e0: 4698 2b3d def7 7cbc c0df 85b6 22e1 013d
000002f0: 0332 1d3a 8475 2bbc 3940 6a3d 02e5 84bd
00000300: 30ce 5b3c 797c cebc 5666 75bd b7df aabc
00000310: 2497 413d a00c a43c a6bf 923c 0e50 d13c
00000320: 9069 7c3c 761a 4e3d d51e 7abd 5779 7f3d
00000330: 9424 363c 5d82 dd3c 9099 dbbb 6138 15bd
00000340: 805e cc3c 90f2 7fbc 2c39 0c3d ee0d 77bd
00000350: 8cc9 8fbd 1f75 dabc 7726 b0bc d9e5 efbc
00000360: b034 7f3d 3a9e aabd d14e 433c d994 983b
00000370: ded2 efbc ab92 66bd 0ecb 293b 3fbc 27bc
00000380: 9aa1 de3c 066a 71bd b8e0 353d 1ca9 4bbd
00000390: 8768 6ebd 70f7 fb3c 85c7 85bd ea62 3dbd
000003a0: 48e7 3bbc 88c8 8ebd fa48 8abd 7273 52bd
000003b0: ccd0 5bbd 7e76 10bd a809 38bd 8cc7 eb3c
000003c0: 085d 23bd 14b4 77bc 118c 37bd 8430 483d
000003d0: bc39 09ba 523d 503d 666d 72bd 2246 78bd
000003e0: 7842 313c 090e 48bd a57a 933d b007 4f3d
000003f0: fa05 e5bb 6f96 c83c ae24 4dbd f5df 06bd

arith.constant7 f4 [3]
0.0067046336 -0.010348274 0.005210834
00000000: 8bb2 db3b cf8b 29bc a5bf aa3b

arith.constant8 f4 [128]
-0.010095928 0.0010474179 0.0033992284 0.010052523 -0.0054465863 -0.006003962 0.0046914928 -0.006000555
-0.007934101 0.0 -0.0070852293 0.0056477305 -0.005983916 -0.004095548 -0.0066328067 0.00857796
0.00043961965 -0.008394286 -0.0052790176 0.012346359 0.009993461 0.011957974 0.004194669 -0.0081999665
-0.0038884783 -0.0069821854 -0.005255559 -0.0059994212 0.0 0.0035348218 -0.0050964127 -0.0010707979
0.00087163167 0.0 0.0 0.0 -0.0060034893 -0.003227603 0.0053237895 0.009608081
-0.008128689 -0.008475963 0.0026792907 -0.005537475 -0.0058249766 0.007265578 -0.004457326 -0.0055296
0.008392115 -0.005092525 0.0029744199 -0.0051151155 -0.007187663 0.006183523 -0.0026454756 -0.005986561
0.010240829 0.0 0.0059736012 -0.0066895587 -0.008763305 0.0 -0.004524253 -0.0048506064
0.0035288108 0.0027144402 0.011907269 0.012422449 0.011697136 -0.005443792 0.011236139 -0.006809557
-0.0027455636 -0.008321373 -0.00797675 -0.0059871892 -0.00334849 0.011999081 -0.0067248363 0.0
0.01201312 -0.005549989 -0.0009888498 0.013710929 -0.005493187 0.0 -0.005552766 -0.0040990273
0.013373381 0.0029086615 0.0 -0.0060043405 0.011179375 0.008242269 -0.005998866 0.004797091
-0.0058783516 -0.003140993 0.005409965 0.0 0.0 0.0 -0.005113412 0.010343554
0.011820663 0.010154797 -0.0060021766 -0.002726599 -0.005339074 -0.0051203 -0.007371162 0.0054044584
-0.0055432906 -0.0026623479 0.011133434 -0.0032132224 0.008816504 0.0 0.009055783 -0.00813596
0.010823382 0.0 -0.0059933006 0.011124265 -0.002605447 -0.008053878 0.010457634 0.013875834
00000000: 6469 25bc 8349 893a 97c5 5e3b 56b3 243c
00000010: 4779 b2bb e2bc c4bb 18bb 993b 4ea0 c4bb
00000020: 08fe 01bc 0000 0000 362b e8bb 9910 b93b
00000030: ba14 c4bb f233 86bb 0458 d9bb 928a 0c3c
00000040: c07c e639 3088 09bc 9cfb acbb 6248 4a3c
00000050: 9dbb 233c 61eb 433c 6f73 893b 2759 06bc
00000060: d7d5 7ebb d1ca e4bb d336 acbb cb96 c4bb
00000070: 0000 0000 78a8 673b cfff a6bb 045a 8cba
00000080: 367e 643a 0000 0000 0000 0000 0000 0000
00000090: ebb8 c4bb 3186 53bb 2f73 ae3b 366b 1d3c
000000a0: 312e 05bc c4de 0abc 0a97 2f3b b573 b5bb
000000b0: 72df bebb 1614 ee3b c30e 92bb a631 b5bb
000000c0: 157f 093c 32df a6bb 7cee 423b b39c a7bb
000000d0: 7d86 ebbb 279f ca3b b75f 2dbb ea2a c4bb
000000e0: 26c9 273c 0000 0000 33be c33b 1634 dbbb
000000f0: f793 0fbc 0000 0000 2f40 94bb d6f1 9ebb
00000100: 9f43 673b c0e4 313b b516 433c 8787 4b3c
00000110: 58a5 3f3c d661 b2bb c817 383c b422 dfbb
00000120: eaee 33bb 5e56 08bc eab0 02bc 2f30 c4bb
00000130: 5772 5bbb cb97 443c 045c dcbb 0000 0000
00000140: add2 443c afdc b5bb 4b9c 81ba cea3 603c
00000150: 3100 b4bb 0000 0000 faf3 b5bb 2251 86bb
00000160: 071c 5b3c 3e9f 3e3b 0000 0000 0fc0 c4bb
00000170: b329 373c 950a 073c 2392 c4bb ea30 9d3b
00000180: 309f c0bb 1ed9 4dbb 1346 b13b 0000 0000
00000190: 0000 0000 0000 0000 698e a7bb 0378 293c
000001a0: 74ab 413c 4e60 263c e8ad c4bb beb0 32bb
000001b0: 66f3 aebb 31c8 a7bb ca89 f1bb e217 b13b
000001c0: 7ea4 b5bb c97a 2ebb 0269 363c ed94 52bb
000001d0: 1973 103c 0000 0000 b55e 143c b14c 05bc
000001e0: 8e54 313c 0000 0000 7363 c4bb 8d42 363c
000001f0: 26c0 2abb 6af4 03bc 7f56 2b3c 7757 633c

sequential_1_1/conv2d_3_1/Relu;sequential_1_1/conv2d_3_1/add;sequential_1_1/conv2d_3_1/convolution; f4 [32, 3, 3, 3]
-0.00032800646 -1.2939061e-05 -1.7677213e-06 7.4232266e-05 -0.00042388448 -0.00042389447 0.00032808565 -0.00026271868
0.00010391892 -4.843255e-05 0.00011301409 0.00053888926 9.703046e-05 0.00018343335 0.00013919597 -4.188711e-05
0.00013980812 -0.00022459019 -0.0005075807 -0.00041192878 0.00042925926 -0.00017324997 -0.00051890785 -0.00012920189
0.0003577027 -0.00033971487 0.00024401389 -0.00045408768 -0.00046124053 0.00031302718 0.0003110419 0.0003906491
0.0003172654 0.0004888762 -0.00036891838 -0.0002730423 -3.068489e-05 -0.00036138343 -8.831879e-05 0.00035972008
-0.0004956805 -0.0003136781 -0.00036175628 -0.00010750095 0.0001443831 0.00040505445 -0.00022373607 -0.00041126998
0.00053533906 8.101344e-05 -0.00034975013 -8.884167e-06 0.00021161554 0.00017354127 0.00023698497 -0.00036957572
-2.8690816e-05 -0.0005374871 8.539066e-05 0.00023116005 -0.00020044281 -0.0005471258 6.221348e-05 -0.00024226066
-0.00037690817 -0.0003371129 0.000110365356 0.0004738788 -0.00055024325 0.00034857643 0.00046896492 -0.00054917764
-0.0004094136 0.00047601835 -0.00053810765 -0.00034183986 -0.0005678758 -0.00035061702 0.00021884934 -0.00030840267
3.897311e-05 0.00014869632 -1.0593268e-05 -0.000324769 4.175726e-05 0.00037053446 0.00029430562 -0.00046016352
-0.00015971193 0.000119285985 0.00029090024 0.00032211043 0.00040045966 -4.293631e-05 -3.126675e-05 -2.5241548e-05
0.00017679915 0.00035293167 -0.0003008345 0.00047517498 9.808303e-05 -0.00032361795 0.00042174626 0.00038197203
-1.6560778e-05 0.00036412623 1.7179242e-05 -0.00014558528 -0.00012937307 -0.00037886846 -0.0002361858 0.0004943178
-3.0158899e-05 0.00042508676 0.00018990344 -0.0005900897 -0.0002884585 7.951532e-05 -0.0003979656 0.00020167092
0.00013325998 -0.00042106633 2.0853004e-05 0.0004884911 -0.00031207994 0.00045935487 -1.5538792e-06 3.1728596e-05
0.00046857115 -0.00025785982 0.00024440562 0.00052833225 -8.955104e-05 -0.00044591128 3.693237e-06 -0.00025233778
0.00011241796 -0.000355042 -9.718901e-05 -0.00039096666 0.00023227684 9.2910064e-05 -0.00015050743 -0.00010421696
0.0002150709 0.00019299421 0.00027824094 -0.00046923678 -0.00039933104 -0.00046045662 -0.00033856393 -0.0002384895
-0.00018930522 0.00027507445 0.00013513248 -0.00026180368 0.00027413253 0.00025175614 -0.00016983098 0.00046304852
0.00028790307 -3.489928e-05 -0.00019142072 0.0005362947 -1.3620873e-06 -0.00041990052 -0.00020349587 -0.00017242787
0.00035995484 -0.0004966714 -0.00040250615 0.00033369308 -2.4820913e-05 -1.7374188e-05 0.00018284883 0.0005365635
-6.687171e-05 0.00044022733 0.0004468608 -0.0004595126 -0.00023503114 4.722221e-05 0.00032847034 -0.00010017655
0.00012026735 -0.0005128589 -0.000111973146 -0.00050556345 0.0003246793 -0.00010463909 0.00040847633 -0.0002562496
-0.0004120836 -0.0003157663 -0.00031873165 0.00014713815 -0.00026715684 0.00017746222 -0.00016975575 -0.0003237282
0.0005754317 -6.185736e-05 -0.00037201942 -0.0003962553 -0.0003919304 0.0005443707 -0.00046860613 0.00031336249
0.00024774345 -0.00042040148 0.00043891816 -0.00021134889 0.0005573019 0.00015595915 0.00017739524 -0.00027577856
-0.00019146649 0.00023799697 0.0002684537 -0.0004826665 -0.00031652572 -0.00027839033 -3.7117388e-06 -0.0003140616
9.7845514e-05 -0.0002257997 0.00021856523 -5.6104334e-05 -4.8305155e-05 0.00015411476 0.00036844038 0.00020430596
-0.0002501125 -0.0005109696 -4.09724e-05 -0.00046662072 -0.00043475907 0.00017476738 -0.0004558257 -0.0004426886
-0.00042995458 0.00037387788 0.0003390654 0.00026312037 -5.0294207e-06 -0.00010815931 2.4024373e-05 3.280309e-05
0.00049815275 -0.00024216667 -4.3924454e-05 -0.00044338783 5.2723368e-05 0.0005388146 0.00021370905 -0.00026687898
00000000: 48f8 abb9 d814 59b7 7142 edb5 25ad 9b38
00000010: d03c deb9 273e deb9 e902 ac39 81bd 89b9
00000020: 0cef d938 0e24 4bb8 fa01 ed38 3f44 0d3a
00000030: d57c cb38 0458 4039 22f5 1139 f1af 2fb8
00000040: 7599 1239 f87f 6bb9 2a0f 05ba 25f8 d7b9
00000050: 340e e139 6faa 35b9 5107 08ba 5e7a 07b9
00000060: 0b8a bb39 c21b b2b9 fbdd 7f39 9e12 eeb9
00000070: a8d2 f1b9 cc1d a439 5613 a339 09d0 cc39
00000080: a456 a639 ed27 003a 636b c1b9 1e27 8fb9
00000090: a6b3 00b8 1078 bdb9 ca37 b9b8 d098 bc39
000000a0: 8ef0 01ba 2975 a4b9 1baa bdb9 2272 e1b8
000000b0: 8b65 1739 7d5d d439 b29a 6ab9 b99f d7b9
000000c0: ff55 0c3a c2e5 a938 ab5e b7b9 350d 15b7
000000d0: 1de5 5d39 a1f8 3539 2b7f 7839 9dc3 c1b9
000000e0: 0fad f0b7 26e6 0cba c313 b338 8e63 7239
000000f0: f52d 52b9 fe6c 0fba 9c78 8238 5a07 7eb9
00000100: c29b c5b9 87be b0b9 f373 e738 f072 f839
00000110: 333e 10ba 23c1 b639 68df f539 b0f6 0fba
00000120: 90a6 d6b9 1a92 f939 cb0f 0dba f838 b3b9
00000130: 80dd 14ba 05d3 b7b9 ec7a 6539 1bb1 a1b9
00000140: 0f77 2338 5deb 1b39 bdb9 31b7 c245 aab9
00000150: 8424 2f38 4b44 c239 084d 9a39 1a42 f1b9
00000160: 5878 27b9 2d29 fa38 f883 9839 eee0 a839
00000170: c9f4 d139 8316 34b8 6b24 03b8 d0bd d3b7
00000180: 2963 3939 b009 b939 53b9 9db9 e820 f939
00000190: edb1 cd38 44ab a9b9 d31d dd39 6b43 c839
000001a0: 00ec 8ab7 32e8 be39 241c 9037 40a8 18b9
000001b0: 52a8 07b9 dda2 c6b9 a5a8 77b9 1b95 013a
000001c0: befd fcb7 2ede de39 d120 4739 40b0 1aba
000001d0: 3f3c 97b9 76c1 a638 0aa6 d0b9 a077 5339
000001e0: b4bb 0b39 91c2 dcb9 7ced ae37 150e 003a
000001f0: a99e a3b9 91d5 f039 e28e d0b5 5214 0538
00000200: 8eaa f539 5c31 87b9 9123 8039 c77f 0a3a
00000210: 59cd bbb8 33c9 e9b9 54d9 7736 344c 84b9
00000220: efc1 eb38 ee24 bab9 f4d1 cbb8 a8fa ccb9
00000230: 578f 7339 b6d8 c238 88d1 1db9 0e8f dab8
00000240: a884 6139 7d5e 4a39 dee0 9139 e503 f6b9
00000250: 4e5d d1b9 7169 f1b9 4881 b1b9 0a13 7ab9
00000260: 3c80 46b9 de37 9039 59b2 0d39 b242 89b9
00000270: 72b9 8f39 23fe 8339 a814 32b9 52c5 f239
00000280: b2f1 9639 d160 12b8 1cb8 48b9 2196 0c3a
00000290: f7d0 b6b5 1826 dcb9 8261 55b9 c1cd 34b9
000002a0: 52b8 bc39 0e33 02ba 7607 d3b9 87f3 ae39
000002b0: 8136 d0b7 c9be 91b7 1cbb 3f39 2ba8 0c3a
000002c0: 7a3d 8cb8 50ce e639 a448 ea39 bdea f0b9
000002d0: b172 76b9 7610 4638 8b36 ac39 e015 d2b8
000002e0: 0b38 fc38 6171 06ba 20d3 eab8 ca87 04ba
000002f0: b839 aa39 af71 dbb8 c428 d639 3d59 86b9
00000300: ed0c d8b9 6f8d a5b9 701b a7b9 1949 1a39
00000310: 2f11 8cb9 2715 3a39 7600 32b9 10ba a9b9
00000320: 91d8 163a 6bb9 81b8 9a0b c3b9 7cc0 cfb9
00000330: 027c cdb9 19b4 0e3a 40af f5b9 cd4a a439
00000340: 90e3 8139 5569 dcb9 991e e639 899d 5db9
00000350: e617 123a f788 2339 2c03 3a39 5f96 90b9
00000360: 65c4 48b9 d38e 7939 3fbf 8c39 670e fdb9
00000370: 5df3 a5b9 ebf4 91b9 3017 79b6 a2a8 a4b9
00000380: 6932 cd38 a5c4 6cb9 a82e 6539 9251 6bb8
00000390: 449b 4ab8 de99 2139 3b2b c139 f73a 5639
000003a0: 8821 83b9 97f2 05ba c8d9 2bb8 c6a4 f4b9
000003b0: 60f0 e3b9 c341 3739 e4fb eeb9 a818 e8b9
000003c0: 876b e1b9 0a05 c439 96c4 b139 6bf3 8939
000003d0: 65c2 a8b6 96d3 e2b8 f387 c937 0d96 0938
000003e0: 7796 023a 1fee 7db9 863b 38b8 8276 e8b9
000003f0: 4923 5d38 3c3f 0d3a 1617 6039 e4eb 8bb9
