model.tflite (tflite, 148952 bytes, 10 tensors)

arith.constant f4 [32]
0	0xbc44f231	-0.012020634
1	0xbcf13dcc	-0.029448412
2	0xbc22662c	-0.009912055
3	0xbc1cd05d	-0.009571162
4	0x3c17a877	0.009256474
5	0xbbe7615e	-0.0070611676
6	0xbcd17a25	-0.025570938
7	0x3c90e51e	0.017687377
8	0xbb1d5b58	-0.0024010744
9	0x3a89a474	0.0010501281
10	0x3c26e924	0.010187421
11	0x00000000	0.0
12	0x3acf1a14	0.0015800619
13	0xbc81a95e	-0.01582783
14	0xbca41301	-0.020028593
15	0xbc801436	-0.015634637
16	0xbc890d92	-0.016730104
17	0x00000000	0.0
18	0xbb085a71	-0.002080586
19	0x3ade9ef6	0.001698463
20	0xbc5d3fcc	-0.01350398
21	0xbbc4a736	-0.0060013784
22	0x3c3b73e1	0.011441202
23	0x3ccd0752	0.025027905
24	0xbb5d268d	-0.0033744902
25	0x3c7789f0	0.01510857
26	0x3cebe0a6	0.028793644
27	0x3ccf0d3a	0.025274862
28	0x3cc0c6be	0.023532268
29	0x3c9e91af	0.019356577
30	0x00000000	0.0
31	0xbca07ec7	-0.019591702

arith.constant1 f4 [32]
0	0x3cd298d4	0.02570764
1	0x3ba6f0a6	0.0050946055
2	0xbbe6e373	-0.007046157
3	0xbc6fef9f	-0.014644532
4	0x3ca0fbaa	0.019651253
5	0x3c893fce	0.016754057
6	0x3c78162e	0.015142007
7	0x00000000	0.0
8	0xbcbc3050	-0.022972256
9	0xbb0c544c	-0.002141255
10	0xbb87aaf7	-0.0041402536
11	0x3cbba3ce	0.022905257
12	0x00000000	0.0
13	0xbc663ecc	-0.014053058
14	0xbc0f9c61	-0.008765311
15	0xbc57f64c	-0.01318128
16	0x3c854400	0.016267776
17	0x3b37cef1	0.002804693
18	0x3cf9e38b	0.030504009
19	0xbcdd566d	-0.02701875
20	0xbc07c957	-0.008287749
21	0xbb0576ca	-0.0020364993
22	0x3bdecfdf	0.0067996825
23	0x3c9ae745	0.018909106
24	0xbbc443e0	-0.0059895366
25	0x3bfbf277	0.007688816
26	0x3cb04b9f	0.021520434
27	0xbc291ff8	-0.010322563
28	0x3ba5408b	0.0050430945
29	0x00000000	0.0
30	0x3b74b461	0.003733896
31	0xbb926272	-0.004467302

arith.constant2 f4 [32]
0	0xbc1e2e95	-0.009654661
1	0xbc16c215	-0.009201546
2	0xbd1b2c84	-0.03788425
3	0xbc9ebe11	-0.01937774
4	0xbc441315	-0.01196744
5	0xbcc062c2	-0.023484591
6	0x3d452868	0.048134238
7	0xbbe4e9b1	-0.006985866
8	0xbc5b4fec	-0.013385754
9	0xbcded1b6	-0.027199607
10	0x3ce487b0	0.027896732
11	0x3bbd37f5	0.005774493
12	0xbb61094b	-0.0034337814
13	0x3c6eda1c	0.0145783685
14	0x3c9ab284	0.018883951
15	0x3ca0db92	0.01963595
16	0xbc260388	-0.010132678
17	0xbcae52bc	-0.021279685
18	0xbc25087c	-0.010072824
19	0xbd147701	-0.036246303
20	0xbc57ba1c	-0.0131669305
21	0x3c344540	0.011002839
22	0x3c93f8c4	0.018062957
23	0xbc8b698c	-0.017018102
24	0x3c47a2b6	0.012184789
25	0xbc815fa2	-0.015792672
26	0xbd2ba7f8	-0.041908234
27	0x3c8005cc	0.015627764
28	0x3b475931	0.0030418152
29	0xbd74bffa	-0.059753396
30	0x3d11be30	0.035581768
31	0xbc46f468	-0.012143232

arith.constant3 f4 [32, 3, 3, 32]
0	0x3d93407d	0.071900345
1	0x3cdf5d90	0.027266294
2	0x3d781010	0.060562193
3	0x3c388a73	0.011263478
4	0x3d9acf01	0.07559014
5	0x3d8ebecc	0.06969985
6	0xbd83ec99	-0.06441612
7	0xbd769a7f	-0.060205933
8	0x3d12a84c	0.03580503
9	0x3d9e0453	0.077156685
10	0xbd70094e	-0.058602624
11	0x3db9c66c	0.09071049
12	0x3d9b75ba	0.07590814
13	0xbdd9c6b8	-0.10633606
14	0x3bafcf90	0.0053653196
15	0xbc683cd5	-0.01417466
16	0x3d8be8f5	0.068315424
17	0x3d70e3d9	0.058811042
18	0xbda4c10a	-0.08044632
19	0xbd78a5c5	-0.060704965
20	0xbd3d19d4	-0.04616721
21	0xbd86ed1c	-0.06588194
22	0x3cbd7e60	0.02313155
23	0x3d4756a9	0.04866663
24	0xbd90fdec	-0.07079682
25	0xbdd34372	-0.103155985
26	0x3d7c8d9b	0.061658483
27	0x3ac49740	0.0014998689
28	0xbd91078e	-0.07081519
29	0x3d3af42c	0.045643017
30	0x3d983814	0.07432571
31	0xbd6d7a88	-0.057978183
32	0xbdad85e6	-0.08472805
33	0x3c87ab09	0.016561048
34	0x3d2ec1d0	0.042665303
35	0xbd7c36c1	-0.061575655
36	0x3d981d1b	0.074274264
37	0xbd86bb21	-0.06578661
38	0xbdd9660e	-0.106151685
39	0xbcaf6d4c	-0.021414421
40	0x3dad5098	0.08462638
41	0xbd72179f	-0.059104558
42	0xbcdad3cf	-0.026712326
43	0xbb7e0744	-0.0038761655
44	0x3c487a38	0.0122361705
45	0x3d5be11a	0.05368147
46	0xbd0dc7da	-0.03461442
47	0x3d9aedeb	0.075649105
48	0x3ce64341	0.028108241
49	0x3d8e7437	0.0695576
50	0xbd6f823a	-0.058473803
51	0xbde49bf3	-0.111625575
52	0x3cc8c7a0	0.024509251
53	0xbd157e15	-0.036497194
54	0xbce6a120	-0.028153002
55	0x3b19b479	0.0023453517
56	0x3abe9500	0.0014540255
57	0x3dc17ef2	0.09448041
58	0x3c2faac3	0.010721865
59	0x3d7c8668	0.061651617
60	0x3d94dbc4	0.072684795
61	0x3dc519a4	0.09624031
62	0x3cd48790	0.025943547
63	0xbd1f9fd3	-0.03897078
64	0xbd7f8605	-0.06238367
65	0xbcaab9fb	-0.020840636
66	0xbd3b3169	-0.045701418
67	0x3cf2c0d1	0.029632958
68	0xbc88766a	-0.016658027
69	0xbd0f2dcb	-0.03495578
70	0xbca64635	-0.02029715
71	0x3dc5d29e	0.09659313
72	0xbdcccd11	-0.10000051
73	0xbd3b94f4	-0.04579635
74	0xbda30455	-0.07959811
75	0xbda89b4c	-0.082327455
76	0x3cf55d70	0.029951781
77	0x3cc2dc5a	0.023786712
78	0x39439a93	0.00018654233
79	0xbdc88a70	-0.0979203
80	0xbcc6abc7	-0.024251832
81	0x3d8a101b	0.06741353
82	0x3c1cdf30	0.009574696
83	0xbdbfa8f5	-0.09358398
84	0x3cdd12d3	0.026986515
85	0xbc6360a4	-0.013878021
86	0x3d8b12ff	0.067907326
87	0xbdc91cb3	-0.09819927
88	0x3cd56c48	0.02605261
89	0xbd15c915	-0.03656872
90	0x3ca1b53f	0.019739745
91	0x3bdd66f0	0.006756656
92	0xbd246d4d	-0.0401433
93	0xbc42b870	-0.011884794
94	0xbcdc3cb8	-0.026884422
95	0xbd692543	-0.0569203
96	0xbc86a2d2	-0.01643506
97	0x3db8af50	0.09017813
98	0x3d52852c	0.051396534
99	0x3cc30a22	0.023808543
100	0xbcd93de5	-0.026518771
101	0x3c4dfdf1	0.012572751
102	0xbcdf694d	-0.027271891
103	0xbca42b60	-0.020040214
104	0xbda9bc5e	-0.08287881
105	0xbd1958d6	-0.037438236
106	0xbd82e37c	-0.063910455
107	0x3d8953ec	0.0670546
108	0x3d9fead6	0.07808463
109	0xbcb88bf5	-0.022527674
110	0x3c6e2c68	0.014536954
111	0xbd910507	-0.07081037
112	0xbd395db3	-0.045255374
113	0xbd35db45	-0.044398565
114	0x3dbb674c	0.09150562
115	0xbad28787	-0.0016062119
116	0x3c225248	0.009907313
117	0x3c0825c1	0.0083097825
118	0x3d63f26b	0.05565111
119	0x3bd57d72	0.0065151984
120	0xbc883930	-0.016628832
121	0x3db71cc5	0.08941034
122	0xbd7019cb	-0.058618348
123	0xbda3e52f	-0.08002698
124	0xbce5ac57	-0.02803628
125	0x3d6ab434	0.05730076
126	0xbdbfd38d	-0.09366522
127	0x3bd16fba	0.0063914927
128	0x3db2c47a	0.08728881
129	0x3cd19280	0.025582552
130	0x3c883dc8	0.016631022
131	0x3c436a35	0.011927177
132	0xbcd8d71c	-0.02646976
133	0x3dbf5c60	0.09343791
134	0x3dab65c4	0.0836902
135	0xbd7c6c6d	-0.06162684
136	0x3da9827d	0.08276842
137	0xbd912490	-0.07087052
138	0x3cd122c1	0.025529267
139	0x3d027877	0.031853165
140	0x3c272e68	0.010203935
141	0xbdbd4e0b	-0.09243401
142	0x3c8b200c	0.016983055
143	0x3d61eccb	0.055157464
144	0xbd21506c	-0.039383337
145	0xbbc25852	-0.0059309388
146	0x3dbdc1f6	0.09265511
147	0x3d8ead0e	0.06966601
148	0xbcd3e5bc	-0.025866382
149	0xbb955c0e	-0.004558093
150	0xbc29735d	-0.010342446
151	0x3d985d89	0.074397154
152	0x3ca6b6a4	0.020350762
153	0x3d84edbc	0.06490657
154	0xbdb5c8bb	-0.08876177
155	0x3dc9511a	0.09829922
156	0xbdb9b63c	-0.090679616
157	0xbdb57c1c	-0.088615626
158	0xbcb2a5c4	-0.021807559
159	0xbd8c2fd9	-0.06845064
160	0xbd40b369	-0.0470461
161	0xbdcae304	-0.09906581
162	0xbd660a4e	-0.05616217
163	0x3d8cd397	0.06876295
164	0xb8408000	-4.5895576e-05
165	0xbd919d3e	-0.0711007
166	0x3c1b4684	0.009477261
167	0xbd9f5673	-0.07780161
168	0x3d0851f7	0.033281293
169	0xbdac5d7b	-0.084162675
170	0xbd917f64	-0.07104376
171	0xbc2b05d5	-0.010438402
172	0x3d03ead0	0.032206357
173	0x3d8db52c	0.069193214
174	0xbd17233a	-0.03689883
175	0xbd4b95bc	-0.049703345
176	0x3c0eac76	0.00870811
177	0x3c13d8a8	0.009023823
178	0xbdb6b3dc	-0.08921024
179	0xbd4e836e	-0.05041831
180	0xbd7bd750	-0.061484635
181	0xbda77915	-0.081773914
182	0xbd8d3f05	-0.06896786
183	0x3c331755	0.010930856
184	0x3da2c088	0.07946879
185	0xbd1d3dbd	-0.038388956
186	0xbdd27ef5	-0.102781214
187	0xbcbe7b88	-0.023252264
188	0xbd6196f6	-0.05507561
189	0x3d01d7d0	0.031699955
190	0xbb8a2f50	-0.004217066
191	0x3d722891	0.05912072
192	0x3dacc718	0.084364116
193	0xbd703149	-0.058640752
194	0xbd9c83b9	-0.076423116
195	0xbcb1dc25	-0.021711418
196	0x3d1c43d8	0.03815064
197	0x3d608c8e	0.054821543
198	0xbc4afa74	-0.012388814
199	0xbd86b6cd	-0.06577835
200	0xbd2c7cfc	-0.042111382
201	0x3ce0fd9c	0.02746468
202	0x3dbb4f56	0.091459915
203	0xbbeb7d84	-0.0071865935
204	0xbb393940	-0.0028262883
205	0x3db1ce65	0.08681945
206	0x3dbaea32	0.091267005
207	0x3d26de58	0.040739387
208	0x3db08aa9	0.08620197
209	0xbd908882	-0.07057287
210	0x3daee262	0.08539273
211	0xbb2bfc4d	-0.0026242912
212	0xbda0bfa6	-0.07849054
213	0xbd6d88e0	-0.057991862
214	0xbd9da98c	-0.07698354
215	0xbc4d3bac	-0.012526434
216	0x3ca02bc0	0.019552112
217	0xbc275681	-0.010213495
218	0xbdd40d2a	-0.10354073
219	0x3c9d29b0	0.019184917
220	0x3d5276d2	0.051382847
221	0xbdc1b5d2	-0.094585076
222	0x3d73d5f0	0.0595302
223	0xbd7d14a4	-0.061787263
224	0xbd886c8c	-0.06661329
225	0x3c0b2cd8	0.008494578
226	0xbd038430	-0.032108486
227	0x3d8fe62e	0.07026325
228	0xbc04d7e8	-0.008108117
229	0xbd75408d	-0.059876014
230	0x3dcd250c	0.10016832
231	0x3dc573fe	0.096412644
232	0x3d3e1953	0.04641087
233	0xbd5a6896	-0.053322397
234	0x3d755eec	0.059904978
235	0x3d9b1662	0.075726286
236	0xbc6afe08	-0.014342792
237	0x3d3a6334	0.045504764
238	0xbd1875d6	-0.037221752
239	0x3ca9b372	0.020715449
240	0xbd672588	-0.056432277
241	0x3cd63102	0.026146416
242	0xbd86193e	-0.06547783
243	0x3cc6d6ff	0.02427244
244	0xbdafaa0b	-0.08577355
245	0xbd9d98ec	-0.07695183
246	0xbd991b9c	-0.07475969
247	0xbcd7cf92	-0.026344094
248	0x3d8fca9e	0.07021068
249	0xbd84551a	-0.06461544
250	0x3d2b4d34	0.041821674
251	0xbc763a10	-0.015028492
252	0x3c85621d	0.016282136
253	0x3c2c50c0	0.010517299
254	0xbda9e9c9	-0.08296544
255	0xbdc38fea	-0.09548934

arith.constant4 f4 [32, 3, 3, 32]
0	0xbd8a0760	-0.06739688
1	0xbd185824	-0.037193432
2	0x3b7d9126	0.0038691252
3	0x3d3e178a	0.046409167
4	0xbd1b4f5a	-0.037917472
5	0xbdaaaf2f	-0.08334195
6	0x3d31409f	0.043274518
7	0x3c1d26ca	0.009591768
8	0xbda83f48	-0.08215195
9	0x3d8c73f5	0.068580545
10	0x3bea6042	0.007152588
11	0x3d3f5483	0.046711456
12	0x3dc9ed14	0.09859672
13	0xbd16d291	-0.036821906
14	0xbd8b8b2c	-0.06813654
15	0xbd78b6e8	-0.060721308
16	0x3ab04c2d	0.0013450437
17	0xbd6ce1e0	-0.0578326
18	0xbd3855ea	-0.04500381
19	0xbcf6c763	-0.030124372
20	0xbd40de8b	-0.047087234
21	0xbc4888c5	-0.01223964
22	0x3d08eea9	0.03343073
23	0xbd96b577	-0.073588304
24	0xbb30d270	-0.00269809
25	0x3d47f0bb	0.048813563
26	0x3d0d99ad	0.034570385
27	0xbdd8c615	-0.10584656
28	0x3da2df4d	0.079527475
29	0x3de08c4b	0.10964259
30	0x3e48f76f	0.19625638
31	0xbc885cb8	-0.016645774
32	0xbc8c7f2a	-0.01715048
33	0x3dab060f	0.08350765
34	0xbd9aca05	-0.075580634
35	0x3d72ad56	0.059247337
36	0xbd942a09	-0.0723458
37	0x3cd156f7	0.025554163
38	0x3d0dbea4	0.034605637
39	0xba297eee	-0.00064657524
40	0xbddb2c20	-0.107017756
41	0xbdcdba07	-0.100452475
42	0xbc13f207	-0.009029872
43	0x3dca76d2	0.098859444
44	0xbd4ae6df	-0.049536582
45	0x3d4e84c7	0.050419595
46	0xbd6fc9bf	-0.05854201
47	0xbd999ac2	-0.07500221
48	0x3dc4b677	0.09605115
49	0x3caa2c48	0.020773068
50	0xbcec5840	-0.028850675
51	0x3dc05fa1	0.0939324
52	0x3dcf6814	0.10127273
53	0xbd5c7d5e	-0.053830497
54	0xbd166111	-0.036713663
55	0xbdbe0237	-0.09277766
56	0xbd101232	-0.035173602
57	0xbd10bb2a	-0.035334744
58	0xbd870d7e	-0.0659437
59	0x3cb27f80	0.021789312
60	0xbdac5372	-0.084143534
61	0xbdaaf08c	-0.08346662
62	0x3cc0cc19	0.023534821
63	0xbdcc0067	-0.09961014
64	0x3c9d3c63	0.019193834
65	0x3d6a343b	0.057178717
66	0x3d20bf93	0.0392452
67	0xbc30e2ae	-0.010796232
68	0xbdafcb4f	-0.085837
69	0xbc8d55c5	-0.017252812
70	0xbd9c4b29	-0.07631523
71	0xbcea6f58	-0.028617546
72	0xbd7aed7f	-0.06126165
73	0x3d56e2b1	0.052462284
74	0xbd9bf17b	-0.07614418
75	0x3d3f86cb	0.046759408
76	0x3d516533	0.0511219
77	0x3d69a1f5	0.05703922
78	0x3dd95dbb	0.10613581
79	0x3d30383e	0.043022387
80	0x3c947827	0.0181237
81	0x3d728efb	0.059218388
82	0xbd9207d2	-0.07130398
83	0xbd849c0a	-0.064750746
84	0x3d10cb7a	0.0353503
85	0xbc2c179d	-0.010503677
86	0x3d8d3f15	0.068967976
87	0xbdb39a2f	-0.087696426
88	0x3d480583	0.04883338
89	0xbdc958f5	-0.0983142
90	0xbccaec57	-0.024770899
91	0x3d80a987	0.06282335
92	0x3d083319	0.033251856
93	0xbd24f842	-0.04027582
94	0x3db9cde4	0.09072474
95	0xbd523bde	-0.051326625
96	0x3cb6f3ff	0.022333143
97	0x3da6e54d	0.081492044
98	0xbc44dcd2	-0.012015538
99	0x3dbd56fd	0.09245107
100	0x3d907226	0.07053022
101	0x3cee4919	0.02908759
102	0xbd81a387	-0.063300185
103	0xbdba9ebc	-0.091123074
104	0xbd5ea5e1	-0.054357413
105	0xbd635c74	-0.055508092
106	0xbe0bce96	-0.13653025
107	0x3d3f73e4	0.04674138
108	0x3c7187c0	0.014741838
109	0x3da5c0be	0.08093403
110	0x3da638af	0.0811628
111	0xbe10f665	-0.14156492
112	0xbdc1e6c7	-0.094678454
113	0xbd698b76	-0.057017766
114	0x3d9ff3e4	0.0781019
115	0x3d0ac7c5	0.03388192
116	0x3dbafd31	0.09130324
117	0xbdc2079f	-0.0947411
118	0x3c608887	0.013704426
119	0xbdc455ad	-0.09586654
120	0xbd4b12b2	-0.049578376
121	0xbd9b6800	-0.07588196
122	0xbd817716	-0.06321542
123	0xbdeeb789	-0.116561
124	0xbd7963f6	-0.060886346
125	0x3b7973ca	0.00380634
126	0x3e44d91b	0.19223444
127	0x3d84e6f5	0.06489364
128	0xbd728fff	-0.059219357
129	0xbd63c161	-0.055604342
130	0x3bf45fae	0.007457695
131	0xbce4f684	-0.027949579
132	0xbdcc1ad7	-0.09966057
133	0xbcb60d20	-0.022223055
134	0x3d7566a1	0.059912328
135	0xbcc2f8cd	-0.023800278
136	0x3dc03ac0	0.09386206
137	0xbd1770b4	-0.036972716
138	0x3a8b5c6c	0.0010632402
139	0x3bc54f40	0.00602141
140	0x3bd934ac	0.0066285934
141	0x3c817842	0.015804414
142	0x3c4fa9e5	0.012674783
143	0xbde4c933	-0.11171188
144	0xba3e9443	-0.00072700175
145	0xbd2cced9	-0.042189453
146	0xbd884d41	-0.0665536
147	0x3dcb84e8	0.09937459
148	0x3c1b305a	0.009471977
149	0x3d11b15e	0.03556954
150	0x3da133e0	0.078712225
151	0xbb80a60b	-0.003926044
152	0x3d95b7e9	0.07310469
153	0xbd2503ba	-0.040286757
154	0xbca32b04	-0.019917972
155	0x3c634caa	0.013873259
156	0xbdfd895a	-0.12379713
157	0x3d3ca52d	0.04605596
158	0x3c53a974	0.012918819
159	0xbdc45968	-0.095873654
160	0xbc912e77	-0.017722351
161	0x3d9c61be	0.0763583
162	0xbcdfba30	-0.02731046
163	0x3c21912d	0.009861273
164	0x3d850f50	0.06497061
165	0x3d24cbe5	0.04023351
166	0xbd8fbaa0	-0.07018018
167	0xbdd78a6d	-0.105244495
168	0x3dc1fce7	0.094720654
169	0x3d0a87d4	0.033820942
170	0xbd52f291	-0.05150086
171	0x3dae7c74	0.08519831
172	0x3dd633fc	0.10459134
173	0x3c840402	0.016115192
174	0x3d5142d6	0.05108913
175	0xbc2db325	-0.010601793
176	0xbc51cbbd	-0.012804923
177	0xbc28c489	-0.010300764
178	0x3d271e6b	0.040800493
179	0x3cef68f9	0.02922486
180	0xbdc99059	-0.09841985
181	0x3db5b495	0.08872334
182	0xbd00cb2d	-0.031443764
183	0x3be7511e	0.0070592305
184	0xbcd5d1a8	-0.026100948
185	0xbb870649	-0.0041206223
186	0xbc21561f	-0.009847193
187	0x3d4e946f	0.050434526
188	0xbc46eb2d	-0.012141031
189	0xbce0e68a	-0.02745368
190	0x3e23fdec	0.16014832
191	0x3cb3158f	0.021860866
192	0x3d1d2446	0.03836467
193	0x3dede471	0.11615837
194	0xbd5e08a2	-0.05420745
195	0x3bb21c38	0.005435493
196	0x3d751a76	0.05983969
197	0xbd0cca04	-0.034372345
198	0xbc04586a	-0.00807772
199	0xbd8fe840	-0.0702672
200	0xbd90f22a	-0.07077439
201	0xbdb74fa4	-0.08950737
202	0x3cd313e9	0.02576633
203	0x3d4b1565	0.04958095
204	0x3dc640c5	0.096803226
205	0x3d9bf6fa	0.076154664
206	0x3dad0879	0.08448882
207	0xbe03d997	-0.12875973
208	0xbd842eff	-0.06454276
209	0x3da9d79f	0.082930796
210	0xbd3bb20e	-0.045824103
211	0xbd7d3610	-0.061819136
212	0x3da0146e	0.07816397
213	0xbdb7fb4f	-0.0898348
214	0xbda4c541	-0.08045436
215	0xbd52321f	-0.05131733
216	0x3d07c4ba	0.033146597
217	0xbcc1d106	-0.02365924
218	0x3cb6d9a2	0.022320572
219	0xbe08ce81	-0.13360025
220	0xbdaed9d8	-0.08537644
221	0x3dc94efa	0.09829517
222	0x3e1b6bb0	0.15177798
223	0xbd47d238	-0.048784465
224	0xbd3dcb63	-0.046336543
225	0xbd274385	-0.040835876
226	0xbd770d0e	-0.060315184
227	0x3c1770f4	0.009243239
228	0x3d3ba50e	0.045811705
229	0x3d190d58	0.03736624
230	0xbe04e790	-0.12978959
231	0xbc86ab29	-0.016439037
232	0xbce752c8	-0.028237715
233	0xbd7113ff	-0.05885696
234	0x3ca77fb3	0.020446634
235	0xbd11ba68	-0.03557816
236	0xbd05818f	-0.03259426
237	0x3d407f5b	0.046996456
238	0xbc50d0f5	-0.012745132
239	0xbd20cb52	-0.0392564
240	0xbc6e1fff	-0.014533996
241	0xbc886307	-0.016648782
242	0x3d27a88c	0.040932223
243	0xbc55fe49	-0.013061115
244	0xbc83ad3e	-0.01607382
245	0x3d29ac9e	0.041424386
246	0x3d8238bf	0.0635848
247	0xbdaea3ef	-0.085273616
248	0xbd48775b	-0.04894195
249	0x3d5e7f20	0.054320455
250	0xbd809940	-0.0627923
251	0x3c709b9d	0.014685539
252	0x3cf1b4e0	0.029505193
253	0x3d8f8a99	0.07008857
254	0x3e1be679	0.15224637
255	0x3d97a7f8	0.07405084

arith.constant5 f4 [3, 128]
0	0x3e180d9c	0.14848942
1	0xbe4b19bc	-0.19834036
2	0xbc5bbfd0	-0.013412431
3	0x3e3b2abf	0.18278025
4	0xbe2f0e92	-0.17095402
5	0x3e26ecc2	0.16301253
6	0x3e010607	0.12599955
7	0x3dad4738	0.084608495
8	0x3d33491d	0.043770898
9	0xbd8a90ba	-0.06765886
10	0x3df5ad7c	0.1199598
11	0xbe52f04d	-0.2059948
12	0xbe5e117e	-0.2168636
13	0x3c387d00	0.011260271
14	0x3e035a9c	0.12827533
15	0x3e56e39d	0.20985265
16	0x3e4d2806	0.20034799
17	0xbe541399	-0.20710601
18	0xbe0a2210	-0.13489556
19	0xbe1a64fe	-0.15077588
20	0xbe16040f	-0.14649986
21	0x3d8049d5	0.06264082
22	0xbe60ce10	-0.21953607
23	0xbe4b0169	-0.19824757
24	0xbd870600	-0.06592941
25	0xbe615431	-0.22004773
26	0x3e3f396c	0.18674248
27	0x3d2b281a	0.04178629
28	0x3e5d9146	0.21637449
29	0xb99bc509	-0.00029710706
30	0xbd09d88b	-0.033653777
31	0x3e0d7949	0.13815798
32	0x3dbb2adc	0.09139034
33	0xbe358ff7	-0.177307
34	0x3e084577	0.13307749
35	0x3e6490bd	0.22320838
36	0xbe4c3303	-0.19941334
37	0x3d905dfa	0.070491746
38	0xbd8f2f48	-0.0699144
39	0xbd63181d	-0.055442918
40	0x3ced867c	0.028994791
41	0xbe3ac9d2	-0.18241051
42	0x3d049e74	0.032377675
43	0x3e10e724	0.14150673
44	0x3e5f5812	0.2181094
45	0x3e518891	0.20462252
46	0xbdd3e448	-0.103462756
47	0x3e3967e3	0.18106036
48	0x3d0c2d40	0.03422284
49	0x3d385c33	0.045009803
50	0x3dc98eae	0.09841667
51	0x3e39ad4d	0.18132515
52	0x3e2f0119	0.17090262
53	0xbe4cccdb	-0.20000021
54	0xbca60f33	-0.02027092
55	0xbe030c99	-0.12797774
56	0xbe39c981	-0.18143274
57	0x3dd94520	0.10608888
58	0xbcb0c840	-0.021579862
59	0xbe5b6ce0	-0.21428251
60	0x3e6dbfbe	0.23217675
61	0xbd6ea133	-0.0582592
62	0x3cd659a1	0.026165785
63	0x3df974d7	0.121804886
64	0x3e226e6c	0.15862435
65	0x3da2307e	0.079194054
66	0xbe25e949	-0.16202272
67	0xbe21389a	-0.15744248
68	0x3dd330c8	0.10312039
69	0x3e66b7e0	0.2253108
70	0x3e00e558	0.12587488
71	0x3c8154a2	0.015787426
72	0xbca1ca5e	-0.019749817
73	0x3d316378	0.04330775
74	0x3e140f89	0.14459051
75	0xbe5e989f	-0.21737908
76	0x3db3554a	0.08756502
77	0x3cd009c6	0.025395285
78	0xbe7aba5c	-0.24485153
79	0xbe293b96	-0.16526636
80	0xbe4ca6bf	-0.19985484
81	0xbe442143	-0.19153313
82	0x3e4a2455	0.19740422
83	0x3e134705	0.1438256
84	0xbcb047cf	-0.021518616
85	0xbe1a7205	-0.15082557
86	0x3e06521d	0.13117261
87	0xbd90a27c	-0.070622414
88	0x3e102ce8	0.1407963
89	0xbe619c06	-0.22032174
90	0x3b00d6c0	0.001965925
91	0xbd51222c	-0.05105798
92	0xbe807025	-0.2508556
93	0x3dbb10f3	0.09134092
94	0xbe1dbc00	-0.15403748
95	0xbc8b80f8	-0.01702927
96	0x3bb56665	0.005535888
97	0x3e5015f9	0.20320882
98	0xbdce6c9a	-0.10079308
99	0x3dfa1074	0.122101694
100	0x3e0ee243	0.139535
101	0x3e27e519	0.16395988
102	0x3d85d867	0.06535416
103	0xbe6d3918	-0.23166311
104	0x3dce5f45	0.10076765
105	0xbe2e52ee	-0.17023823
106	0xbbff19a0	-0.007785037
107	0xbd795e3e	-0.060880892
108	0xbcdac716	-0.02670626
109	0xbe11432a	-0.14185777
110	0x3b2aff22	0.0026092012
111	0x3e514ba8	0.20439017
112	0xbd8c2383	-0.06842711
113	0xbde068ea	-0.10957511
114	0x3df9a375	0.1218938
115	0xbdb6351c	-0.088968486
116	0xbe5834d5	-0.21113904
117	0xbba3e318	-0.005001437
118	0x3c39e519	0.011346125
119	0x3cc314a8	0.02381356
120	0x3d01aac3	0.03165699
121	0x3da69674	0.081341654
122	0xbbf45ffd	-0.0074577318
123	0x3e177c4e	0.14793512
124	0x3e6c8a58	0.23099649
125	0x3e1736b4	0.14766961
126	0xbe50cdbb	-0.2039098
127	0x3e6d2190	0.23157334
128	0xbd39acea	-0.04533092
129	0x3e22c432	0.15895155
130	0xbde68773	-0.11256304
131	0x3d5e3721	0.054251794
132	0xbe6d8ced	-0.2319829
133	0x3dc7f616	0.09763734
134	0x3df56456	0.11982028
135	0xbe3594fc	-0.17732614
136	0x3d312f66	0.043258093
137	0x3cae6394	0.021287717
138	0xbe338810	-0.17532372
139	0xbd19ea33	-0.037576865
140	0x3cc82d1a	0.024435569
141	0xbe025c62	-0.12730554
142	0xbe5a33d5	-0.21308835
143	0x3e37fc41	0.17967321
144	0xbc538362	-0.012909742
145	0xbde9ed77	-0.11422246
146	0xbe7798f0	-0.24179435
147	0xbe2f1c0f	-0.17100547
148	0x3c2625a3	0.010140809
149	0xbe045693	-0.1292365
150	0xbe2b47c3	-0.16726594
151	0x3e0f00d5	0.13965161
152	0xbd4a455c	-0.049382553
153	0x3e002885	0.12515457
154	0x3c405000	0.0117378235
155	0xbda4939b	-0.08035966
156	0xbe2d5fd0	-0.16931081
157	0x3e19ffb2	0.15038946
158	0xbd43f1f1	-0.047838155
159	0xbd1cc10b	-0.038270038
160	0x3cc053f6	0.023477536
161	0xbe56c6ef	-0.20974325
162	0xbddb0ed4	-0.106961876
163	0x3e25b575	0.16182502
164	0xbe0d7206	-0.13813028
165	0x3e1d7f07	0.15380488
166	0x3e3ee9bb	0.18643849
167	0xbded97b7	-0.11601203
168	0xbe5ba109	-0.21448149
169	0x3e4a63d7	0.19764648
170	0xbe044bb0	-0.12919497
171	0xbd909fc7	-0.07061725
172	0x3e0176bc	0.1264295
173	0xbe1ef56e	-0.15523311
174	0x3de0d73e	0.10978554
175	0x3dc65d56	0.09685771
176	0xbe2523bc	-0.16126913
177	0xbe42c216	-0.1901935
178	0x3db8209e	0.08990596
179	0xbe34e9d0	-0.17667317
180	0xbe53fa31	-0.20700909
181	0x3e1484c9	0.14503779
182	0xbe1294ba	-0.14314547
183	0x3e1cba6d	0.15305491
184	0xbd4449bc	-0.04792188
185	0xbe70a0ac	-0.23498791
186	0xbdf05a65	-0.117359914
187	0x3c81e8ca	0.015858073
188	0xbe6d74a8	-0.23189032
189	0xbe0a41b0	-0.1350162
190	0x3d091b30	0.033473194
191	0xbdfcb380	-0.123389244
192	0x3e82402b	0.2543958
193	0xbde25caf	-0.11052834
194	0xbe3ddbeb	-0.18540923
195	0x3e0c860b	0.13723008
196	0x3d27c064	0.040954962
197	0xbd04cd82	-0.03242255
198	0xbd96acc7	-0.073571734
199	0xbe344e04	-0.17607886
200	0x3e3c7550	0.18404126
201	0x3cb3ca08	0.021946922
202	0xbe27061f	-0.16310929
203	0xbde39e5a	-0.111141875
204	0x3db4191a	0.0879385
205	0xbd2a35a7	-0.041555073
206	0xbe0b7df2	-0.13622263
207	0xbdfa70d9	-0.12228555
208	0x3e107fb6	0.14111218
209	0x3bcd1c8c	0.0062595066
210	0xbe57dd89	-0.21080603
211	0x3dce1d47	0.10064178
212	0xbc0d4c98	-0.008624218
213	0x3cf84409	0.03030588
214	0xbcc44c96	-0.0239623
215	0x3d5fd300	0.054644585
216	0x3e3bc434	0.18336564
217	0x3d87a192	0.06622614
218	0xbd07b61c	-0.033132657
219	0xbd61eb04	-0.05515577
220	0xbe0c7d19	-0.13719596
221	0xbe862295	-0.2619826
222	0xbd1a1915	-0.037621576
223	0xbd89afca	-0.06722982
224	0xbe841b96	-0.25802296
225	0x3d3b9275	0.04579397
226	0xbdaa1de5	-0.08306483
227	0x3c3d235d	0.011544076
228	0x3e3165cb	0.17323987
229	0x3d045c64	0.032314673
230	0x3ba69b42	0.005084426
231	0xbd29af3d	-0.041426886
232	0x3dcdb61e	0.10044502
233	0x3df50c8c	0.11965284
234	0xbe041266	-0.12897643
235	0xbdc753de	-0.09732793
236	0xbd2bb7e1	-0.041923407
237	0x3d2d062c	0.042242214
238	0x3e3b49b9	0.18289842
239	0x3d5854fd	0.052815426
240	0x3e21186d	0.15731974
241	0x3e0a16ad	0.13485213
242	0x3df0528c	0.117344946
243	0x3e06d841	0.13168432
244	0x3dd744d9	0.105111785
245	0x3d2b9665	0.041891474
246	0xbe4433a5	-0.19160326
247	0x3e49924d	0.19684716
248	0xbe64af17	-0.22332416
249	0x3de9a55c	0.11408493
250	0x3d61f485	0.055164833
251	0x3d8aab79	0.06770987
252	0x3e05ad98	0.13054502
253	0xbe449877	-0.19198786
254	0x3d3630ea	0.04448024
255	0xbe22396c	-0.15842217

arith.constant6 f4 [128, 128]
0	0xbe1a9de6	-0.15099296
1	0x3de0c889	0.10975749
2	0x3e160e85	0.14653976
3	0xbe078374	-0.13233739
4	0x3e046cc5	0.12932117
5	0xbe12dbb3	-0.14341621
6	0xbe11bf95	-0.14233239
7	0x3c6ff572	0.014645921
8	0x3e03d16f	0.12872861
9	0xbdb8898a	-0.090106085
10	0xbdccf130	-0.1000694
11	0xbddfc104	-0.10925487
12	0x3d1d9f84	0.038482204
13	0xbe1e2494	-0.15443641
14	0xbd722fea	-0.059127726
15	0x3e082bf9	0.13298024
16	0xbe06ba33	-0.13156967
17	0x3d155660	0.036459327
18	0x3e0a33da	0.13496342
19	0xbe0d953c	-0.1382646
20	0x3ddde1c1	0.10834075
21	0xbd92c013	-0.071655415
22	0xbcec456f	-0.028841702
23	0xbd38cd10	-0.045117438
24	0x3d43aeb4	0.04777403
25	0xbe222c0c	-0.15837115
26	0xbd3c9406	-0.046039604
27	0xbdd48b7a	-0.103781655
28	0x3de55d92	0.11199488
29	0xbdadcbfa	-0.08486171
30	0xbdd788b1	-0.10524119
31	0xbdec4714	-0.115369946
32	0xbd11df16	-0.035613142
33	0xbc5e24aa	-0.013558546
34	0x3d87c04a	0.06628473
35	0xbd39317e	-0.045213215
36	0x3d90a158	0.07062024
37	0xbd4896b0	-0.04897183
38	0xbde19023	-0.1101382
39	0xbca1802b	-0.019714436
40	0x3b9a4c20	0.004708782
41	0x3e034793	0.12820272
42	0xbc432047	-0.011909551
43	0x3e0f6e01	0.14006807
44	0xbdb8815c	-0.09009048
45	0xbdce5be9	-0.10076124
46	0xbe1eab92	-0.15495136
47	0xbd789657	-0.06069025
48	0xbdfecd83	-0.12441542
49	0xbd162caa	-0.03666369
50	0xbc7b9d56	-0.015357336
51	0xbdbcc5cb	-0.092174135
52	0x3d9374a1	0.071999796
53	0xbe0f1db8	-0.1397618
54	0x3dbadfa4	0.09124687
55	0x3d4bf4ac	0.049793884
56	0xbdd11448	-0.102089465
57	0xbd34adc0	-0.044111013
58	0xbe051564	-0.12996441
59	0xbdcfae3c	-0.101406544
60	0xbdcbc440	-0.09949541
61	0xbd342a5c	-0.04398571
62	0xbcd3b978	-0.025845274
63	0x3dd9e56f	0.10639464
64	0xbe04b3e3	-0.12959246
65	0xbd6434eb	-0.05571453
66	0x3dcc2a96	0.0996906
67	0xbd93ce9c	-0.07217142
68	0xbd6420c6	-0.055695318
69	0x3deaf7ca	0.11473043
70	0x3c116b33	0.008875656
71	0x3e0de1e3	0.138557
72	0x3d161b54	0.036647156
73	0x3d72123c	0.05909942
74	0x3b550346	0.0032503172
75	0x3e00ece3	0.12590365
76	0x3cba8af9	0.022771345
77	0x3dbc43f5	0.09192649
78	0x3c966bde	0.018361982
79	0x3c8735e8	0.016505197
80	0xbd030fcd	-0.03199749
81	0x3d27f788	0.04100755
82	0xbd706d00	-0.0586977
83	0x3dffdb56	0.12493007
84	0x3c76c190	0.015060797
85	0xbcb7a040	-0.02241528
86	0xbd85e2ed	-0.06537423
87	0xbd43dc60	-0.047817588
88	0xbdcfc40d	-0.101448156
89	0xbb635e3c	-0.003469362
90	0x3dea6936	0.11445849
91	0x3da0ae06	0.07845692
92	0x3ded2920	0.115801096
93	0x3c930b83	0.017949825
94	0x3c7720b0	0.015083477
95	0x3d84abe8	0.06478101
96	0x3d91db16	0.071218655
97	0xbde45201	-0.111484535
98	0x3cf30a80	0.029668093
99	0xbdad00b5	-0.084474005
100	0xbd2a8286	-0.041628383
101	0x3d18bb38	0.03728792
102	0xbe26dc5a	-0.16294995
103	0x3c35c376	0.011093965
104	0xbdb1f0c3	-0.086885
105	0x3ddbae64	0.10726622
106	0xbdbeaba2	-0.0931008
107	0x3e1839fd	0.14865871
108	0xbde99b3e	-0.11406563
109	0xbdbca82c	-0.09211764
110	0x3ca50743	0.020145064
111	0xbd127738	-0.035758227
112	0x3dd2b559	0.102884956
113	0xbde27117	-0.110567264
114	0xbe0d5870	-0.13803267
115	0xbe10e5f4	-0.1415022
116	0x3dba292e	0.09089886
117	0xbe13a25b	-0.14417402
118	0xbd7c9a88	-0.06167081
119	0x3d9a27e5	0.075271405
120	0xbe032cd2	-0.12810066
121	0x3db91b1f	0.09038376
122	0xbde8e5b2	-0.11371936
123	0x3e03d30a	0.12873474
124	0x3c8e5426	0.01737411
125	0x3df237e3	0.11827066
126	0xbc5078e0	-0.012724131
127	0xbddaa57d	-0.10676096
128	0xbd9e87c3	-0.07740738
129	0x3c40a89d	0.011758951
130	0x3d2c05f8	0.04199788
131	0x3c6b2060	0.0143509805
132	0x3dacbc6f	0.08434378
133	0xbdf5b963	-0.1199825
134	0xbd9e8dc7	-0.07741886
135	0xbc822822	-0.015888277
136	0x3c2a5780	0.010396838
137	0x3d2cdf50	0.042205155
138	0x3cc84d09	0.024450796
139	0xbd5bbc92	-0.05364663
140	0xbde12604	-0.10993579
141	0xbdf30cf5	-0.11867706
142	0x3dae609c	0.085145205
143	0xbe18a72c	-0.14907521
144	0x3de03981	0.10948468
145	0x3db42240	0.08795595
146	0xbe1ee588	-0.15517247
147	0xbcfc98a1	-0.030834498
148	0xbdc0aa68	-0.094075024
149	0xbd9ca03c	-0.0764775
150	0xbda35151	-0.07974494
151	0x3dc02996	0.09382932
152	0xbe186592	-0.14882496
153	0xbdfe1fae	-0.12408386
154	0x3e079009	0.13238539
155	0x3c807cd7	0.015684528
156	0xbdba3aa9	-0.0909322
157	0x3e08506e	0.13311931
158	0x3dd22c1e	0.10262321
159	0x3dfd29a3	0.12361457
160	0xbdd94384	-0.10608581
161	0xbe29b618	-0.1657337
162	0xbda77571	-0.08176697
163	0x3dadc8ea	0.08485587
164	0xbe17e028	-0.14831603
165	0xbcdc81e0	-0.026917398
166	0xbe1beb4a	-0.15226474
167	0x3e15b354	0.1461919
168	0x3d2b3618	0.041799635
169	0x3e13850e	0.14406225
170	0xbda4d74a	-0.08048876
171	0xbd9234f8	-0.07139009
172	0x3c92676a	0.017871577
173	0x3da18232	0.07886161
174	0xbd2d15e3	-0.0422572
175	0x3daa7351	0.08322776
176	0xbbf08565	-0.0073401206
177	0x3dedd326	0.11612539
178	0x3e159542	0.14607719
179	0xbd5b8cb5	-0.053600986
180	0xbd75da07	-0.06002238
181	0x3e0be7db	0.13662665
182	0x3d988552	0.07447304
183	0x3dd86c72	0.10567559
184	0xbd15f5d2	-0.036611386
185	0x3e112b6a	0.14176717
186	0xbdcd7d0d	-0.10033617
187	0xbdb197b5	-0.08671514
188	0x3debc74e	0.11512624
189	0xbc2f7a9e	-0.010710387
190	0xbce0a138	-0.027420625
191	0xbdd5049b	-0.10401269
192	0x3d0efa28	0.034906536
193	0xbcd45495	-0.025919238
194	0x3dece85e	0.11567758
195	0xbdcdc7ea	-0.10047896
196	0xbdd22696	-0.10261266
197	0x3deb9026	0.115021035
198	0xbda0caeb	-0.078512035
199	0x3ddff31a	0.1093504
200	0x3cd6f738	0.02624093
201	0x3df1c784	0.11805633
202	0x3d6e9b1d	0.058253396
203	0x3ccfc720	0.025363505
204	0x3dab9cbd	0.08379505
205	0x3bd6c38f	0.006554074
206	0x3e062a42	0.13102058
207	0xbde2e4b0	-0.11078775
208	0xbd0ae986	-0.03391411
209	0x3d8fd0c0	0.07022238
210	0xbdf4f56f	-0.11960875
211	0xbdfa4ef2	-0.12222089
212	0xbccde3b3	-0.02513299
213	0x3e19dd03	0.15025716
214	0xbd728c67	-0.05921593
215	0xbdf75f7c	-0.12078759
216	0xbd278d66	-0.040906332
217	0x3d0e3179	0.03471515
218	0x3bc32a94	0.0059560034
219	0x3e121099	0.14264144
220	0xbc6f5b01	-0.014609099
221	0x3e0609e2	0.13089707
222	0xbd2240a6	-0.039612435
223	0x3d25049d	0.040287603
224	0xbe088f4a	-0.1333591
225	0xbe2276a1	-0.15865566
226	0x3e0970e7	0.13421975
227	0x3da9534e	0.08267842
228	0xbe148272	-0.14502886
229	0xbdbd8770	-0.09254348
230	0x3d810271	0.06299294
231	0x3dcc88f8	0.09987062
232	0x3e06129d	0.13093038
233	0xbe1754de	-0.14778468
234	0xbe1e817c	-0.15479082
235	0xbd27f172	-0.041001745
236	0xbceacbcc	-0.028661631
237	0x3dde86d5	0.10865561
238	0xbe089216	-0.13336977
239	0x3e15cdbb	0.14629261
240	0x3d8d2964	0.0689266
241	0xbcae7bc0	-0.021299243
242	0x3d6b6f7c	0.057479367
243	0xbbd81d8e	-0.00659532
244	0xbd8eff30	-0.06982267
245	0x3db1524a	0.086582735
246	0x3dad58ab	0.08464178
247	0x3dbbd4a8	0.0917142
248	0xbe15f7cb	-0.14645307
249	0xbc2c2669	-0.010507205
250	0xbd8ec9d9	-0.06972093
251	0xbe2555e2	-0.16146043
252	0xbdf73f5c	-0.12072632
253	0xba6ebd5c	-0.0009107196
254	0xbde7b2db	-0.11313411
255	0x3da678ff	0.08128547

arith.constant7 f4 [3]
0	0xbc03c064	-0.008041475
1	0xbc635853	-0.013876039
2	0x3ca2f7b2	0.019893501

arith.constant8 f4 [128]
0	0xbc3df823	-0.011594805
1	0xbc5d27db	-0.013498272
2	0x3cd1e813	0.025623357
3	0xbbdb2e54	-0.0066888724
4	0x3ca9c017	0.020721478
5	0xbbb071d2	-0.005384662
6	0x00000000	0.0
7	0xbc21b48f	-0.009869709
8	0x3c9f98a3	0.019481963
9	0x3ba6c774	0.0050896946
10	0x3c0edf52	0.008720236
11	0x3bb49b3f	0.005511671
12	0xbb2d81d2	-0.0026475084
13	0x00000000	0.0
14	0x3ccef670	0.025263995
15	0xbc862a50	-0.016377598
16	0x3c33e27c	0.010979291
17	0x00000000	0.0
18	0x3c965f03	0.018355852
19	0xbbc0d37e	-0.005884587
20	0xbbe1260f	-0.006870992
21	0x3cb38dc6	0.021918189
22	0x3b82af51	0.0039881845
23	0x00000000	0.0
24	0x3b21abb7	0.0024669
25	0xbbac916a	-0.005266358
26	0xbbd3d3a8	-0.0064644404
27	0xbc16ab96	-0.009196183
28	0x3cb1fbf8	0.021726593
29	0xbc2f82c0	-0.010712326
30	0xbc2fda86	-0.010733252
31	0xbc3f6be0	-0.011683434
32	0x3c999618	0.018748328
33	0xbacf5a3c	-0.0015819739
34	0x3c9ca42c	0.019121252
35	0xbc89cdb8	-0.016821727
36	0x3cc0c912	0.023533378
37	0x00000000	0.0
38	0x3be4bd02	0.0069805393
39	0xbbc4b9fe	-0.0060036173
40	0x3ca8822e	0.020569887
41	0xbb95342f	-0.00455334
42	0xbc14743a	-0.009060914
43	0x3c420f6f	0.0118445
44	0xb9be68b6	-0.0003631764
45	0x00000000	0.0
46	0xbc232db1	-0.009959624
47	0x00000000	0.0
48	0x00000000	0.0
49	0xbb39bf9a	-0.0028342963
50	0xbc220158	-0.009888016
51	0x3c18baa0	0.009321839
52	0x39d3b682	0.00040381035
53	0x3c198f9c	0.009372618
54	0xbbb26002	-0.005443574
55	0x3c7673c0	0.015042245
56	0xbc2ea142	-0.010658564
57	0x3cbd390c	0.023098491
58	0x00000000	0.0
59	0x3c5510e8	0.013004519
60	0x3cbc915e	0.023018535
61	0x39d49480	0.00040546432
62	0xbc7cf4b7	-0.015439204
63	0xbc32dc20	-0.01091674
64	0xbc9fa839	-0.019489395
65	0x3cade380	0.021226645
66	0xbac19544	-0.0014769216
67	0x3c2f561b	0.0107016815
68	0xbc5beb45	-0.013422792
69	0x3c3401ef	0.010986789
70	0x3c6f952d	0.014622969
71	0xbab2917a	-0.0013623678
72	0xbc16fef3	-0.009216058
73	0x3ce1a091	0.027542384
74	0x00000000	0.0
75	0xba1176a7	-0.00055489916
76	0xbc40371b	-0.011731888
77	0xbc38d6b1	-0.011281655
78	0x3c93a4cc	0.018022917
79	0xbb7053a6	-0.0036670952
80	0xbb24b809	-0.0025134108
81	0x3c5cc31e	0.013474254
82	0xbbc4c5c1	-0.0060050194
83	0xbb20e7ba	-0.0024552182
84	0xbc986540	-0.018602967
85	0xbb5c71e4	-0.003363722
86	0x3c59bb36	0.0132892635
87	0x3c15f0ec	0.0091516785
88	0xbb64912a	-0.0034876564
89	0x3b5c1270	0.0033580326
90	0x00000000	0.0
91	0x00000000	0.0
92	0x3c7a6dbc	0.015284952
93	0x3bce5b64	0.0062975157
94	0x3c96318f	0.018334178
95	0x00000000	0.0
96	0x3c960f18	0.018317744
97	0xbc09bec6	-0.0084073
98	0xbba94b86	-0.005166474
99	0xbbee8dd1	-0.0072800894
100	0xbc627b0a	-0.01382328
101	0xbc240e21	-0.010013134
102	0xbc806394	-0.015672483
103	0x3bbf0c00	0.005830288
104	0xbbc69f7e	-0.0060614934
105	0x39b2d1c6	0.000341071
106	0x00000000	0.0
107	0x3cc24bc1	0.023717763
108	0xbc572e46	-0.013133591
109	0xbc6b7417	-0.01437094
110	0xbc904ee3	-0.017615741
111	0xbbf08f76	-0.0073413206
112	0xbbfbe1cd	-0.0076868297
113	0x3c0edaf5	0.008719196
114	0xbbfd0cb9	-0.007722464
115	0xbc81913b	-0.015816322
116	0xbc13a4b8	-0.00901144
117	0x3ca29580	0.019846678
118	0x3ccb9eb0	0.024855942
119	0x00000000	0.0
120	0x3c78ec4a	0.015193054
121	0xbbafb694	-0.005362341
122	0x3c0d1c16	0.008612653
123	0xbc178f93	-0.009250539
124	0x3c93bc8a	0.018034238
125	0xbbd7763f	-0.0065753753
126	0xbc7ca8db	-0.015421118
127	0xbb13cb9f	-0.0022551788

sequential_6_1/conv2d_18_1/Relu;sequential_6_1/conv2d_18_1/add;sequential_6_1/conv2d_18_1/convolution; f4 [32, 3, 3, 3]
0	0xb93068fc	-0.00016823778
1	0xb821bee9	-3.856319e-05
2	0xb9aedf6e	-0.00033354334
3	0x39c0e0b9	0.00036788525
4	0xb9614c0c	-0.00021486002
5	0xb9cf303f	-0.00039518063
6	0x38d4db1c	0.0001014976
7	0x3947afe6	0.00019043646
8	0x39ff3c6b	0.00048682405
9	0xb9f4811a	-0.00046635495
10	0xb8abdc54	-8.194955e-05
11	0x387ce2f1	6.0292838e-05
12	0xb969a284	-0.00022281153
13	0xb8546914	-5.06426e-05
14	0x3953eda4	0.00020211056
15	0xb8b0186f	-8.396885e-05
16	0xb9fb95df	-0.00047986113
17	0xb9d23e57	-0.00040100768
18	0xb9a58452	-0.0003156984
19	0xba0a3cb9	-0.00052733306
20	0x39bda399	0.0003617078
21	0xb9ad9bc0	-0.00033113174
22	0xb6c9840a	-6.005638e-06
23	0xb95c0574	-0.00020982866
24	0xb88943fc	-6.545332e-05
25	0x3918dd0a	0.00014578193
26	0x38c269fd	9.270383e-05
27	0x3658d165	3.2308392e-06
28	0x3791d38d	1.7383858e-05
29	0x39f51488	0.00046745338
30	0x39a28d9e	0.0003100456
31	0xb9d2670c	-0.00040131097
32	0xb69876af	-4.5437696e-06
33	0x39acc047	0.00032949654
34	0xb98e02b3	-0.00027086362
35	0xb9307753	-0.0001682912
36	0xba02ea02	-0.00049939763
37	0x393b1f77	0.00017845431
38	0x39865dc7	0.0002562834
39	0xb9a751a7	-0.00031913558
40	0x39d901ab	0.00041390708
41	0xb7dd220c	-2.6361107e-05
42	0xb8ccd5f1	-9.767328e-05
43	0xb9eb2954	-0.00044853485
44	0xb88c881c	-6.7010726e-05
45	0x39d28571	0.00040153743
46	0xb9fd2550	-0.0004828372
47	0xb8afe5fd	-8.387489e-05
48	0xb9bcc6b5	-0.00036006203
49	0xb9e6d5cd	-0.00044028313
50	0x388da274	6.753663e-05
51	0xb93e825b	-0.00018168373
52	0xb987b71a	-0.00025885628
53	0xb9989ccb	-0.0002910852
54	0xb9f66dd6	-0.0004700261
55	0x3a06196d	0.0005115483
56	0x39c34737	0.00037246358
57	0x38ebd77e	0.00011245812
58	0xb91d93f8	-0.0001502781
59	0xb9ac5406	-0.00032869
60	0xb90e1623	-0.00013550422
61	0x3a07e380	0.00051837415
62	0xb8da8ffd	-0.0001042187
63	0x39db0fd9	0.00041782742
64	0x3a06c933	0.00051416754
65	0x39f8e5bd	0.00047473414
66	0x3883a3c8	6.2770734e-05
67	0xb99a638d	-0.0002944734
68	0x3813b25f	3.5213652e-05
69	0x39aa002b	0.00032425052
70	0x3987b7a0	0.00025886018
71	0xb95a2d78	-0.00020807039
72	0xb9b0411d	-0.0003361785
73	0x39edb2d7	0.0004533741
74	0x39e30f86	0.0004330838
75	0x38aff43b	8.390142e-05
76	0x399cdebd	0.00029920592
77	0x374d855b	1.2250001e-05
78	0x39e9f771	0.0004462558
79	0x3892a537	6.992596e-05
80	0x39fb0116	0.0004787526
81	0x39f151fe	0.0004602819
82	0xb9c63880	-0.000378076
83	0x3a1a8c93	0.0005895581
84	0x39111c34	0.00013838784
85	0x39be7ec2	0.00036334066
86	0x38c77af4	9.511961e-05
87	0xb9d17669	-0.0003995181
88	0xb9798953	-0.00023797648
89	0x392daaf4	0.0001656225
90	0xb9e05108	-0.00042784982
91	0x394e0c2c	0.00019650225
92	0x3a22277a	0.0006185692
93	0xb912e9a0	-0.00014010677
94	0x39739a83	0.00023231846
95	0x3a0da473	0.0005403228
96	0x397bf0a7	0.00024026875
97	0xb99705aa	-0.00028805184
98	0x38f1ec78	0.00011535821
99	0x3984671e	0.0002525383
100	0x3a10dd43	0.00055261346
101	0x39f50e21	0.00046740568
102	0x382eb689	4.1654832e-05
103	0xb9b164f8	-0.00033835298
104	0x37854698	1.5887708e-05
105	0x3943a9c9	0.00018659899
106	0x39afc994	0.00033528788
107	0x39bd6918	0.0003612719
108	0xb9bf4086	-0.00036478433
109	0x3992b158	0.0002797942
110	0xba19d2c7	-0.0005867895
111	0xba03a913	-0.00050224474
112	0x3951d9b7	0.00020012898
113	0x39f474c6	0.0004662631
114	0x39d8f9cf	0.00041384852
115	0x3a128e9f	0.000559071
116	0xb979f0c8	-0.00023836188
117	0xb8ea1e04	-0.0001116358
118	0xb909ba8d	-0.00013134834
119	0x39cbbbe5	0.0003885917
120	0x3a02e73d	0.00049935636
121	0xb98b849c	-0.00026610948
122	0x39fd1bc9	0.00048276622
123	0x384cadfc	4.8799426e-05
124	0x38979cfb	7.229481e-05
125	0x39872a60	0.00025780778
126	0x39995218	0.000292436
127	0x39fd6890	0.00048333826
128	0xb9f0aa91	-0.0004590345
129	0x3a1ade3c	0.00059077493
130	0x3a070b3a	0.0005151514
131	0xb9cac0df	-0.00038672143
132	0x39ed57a4	0.0004526946
133	0x38809d87	6.1328574e-05
134	0x385a594c	5.2058414e-05
135	0x388a0f79	6.583235e-05
136	0xb88325ed	-6.253631e-05
137	0xb71d70fe	-9.384237e-06
138	0xb979c4a8	-0.0002381975
139	0xb8e48c8d	-0.00010898067
140	0x397f1c81	0.00024329314
141	0x390c8350	0.00013400358
142	0x394a2448	0.00019277737
143	0xb966d5ab	-0.00022014107
144	0x390b8fdf	0.00013309669
145	0x38d143a9	9.978499e-05
146	0x3a05c974	0.0005103566
147	0x36a81bb3	5.010015e-06
148	0x397c9290	0.00024087192
149	0x3832d687	4.26383e-05
150	0x3855dd89	5.0989478e-05
151	0x391bf7ec	0.0001487431
152	0xba1e5520	-0.00060399063
153	0x382519c8	3.9363076e-05
154	0x39ec9479	0.00045124048
155	0xb9f5054b	-0.00046733985
156	0x38817c0e	6.174306e-05
157	0x39e50b3e	0.0004368666
158	0x398162ea	0.00024678494
159	0xb9aee41a	-0.00033357815
160	0xb9d75910	-0.00041074352
161	0xb92fbebb	-0.00016760353
162	0x3a148ec9	0.00056670286
163	0x3a1f637b	0.00060801924
164	0xb953f7d4	-0.00020214851
165	0xb9da033e	-0.00041582616
166	0xb98e7280	-0.0002716966
167	0x39caec37	0.00038704436
168	0xb980aea5	-0.00024544183
169	0xb996e3d8	-0.00028779986
170	0xb9b2bb2a	-0.00034090254
171	0xb90ca8b5	-0.00013414289
172	0xb9d940d8	-0.00041437778
173	0xb9bd3f84	-0.00036096212
174	0xb8da7f3b	-0.000104187486
175	0x39e45662	0.0004355191
176	0x3996ec77	0.0002878641
177	0xb9000d7b	-0.00012212053
178	0xb9bb645d	-0.00035742196
179	0xb91368b2	-0.00014058014
180	0xb98f6cef	-0.00027356247
181	0xb78b5fd9	-1.6614724e-05
182	0xb9b8e5cd	-0.0003526643
183	0xb99f30ef	-0.00030363302
184	0xb933e594	-0.00017156295
185	0x39a1d72d	0.0003086863
186	0x399c60b8	0.000298267
187	0x39a508c3	0.0003147778
188	0x39bd2103	0.00036073485
189	0x3a04d1e4	0.00050666765
190	0x399a5428	0.0002943587
191	0xb97ca8b4	-0.0002409544
192	0xb9c2425d	-0.00037052008
193	0x37728e07	1.4457392e-05
194	0xb8a04b19	-7.6433826e-05
195	0x3930c17d	0.00016856748
196	0x3980392c	0.0002445666
197	0xb962a928	-0.00021616055
198	0xb9b6d7a6	-0.00034874416
199	0x3960858a	0.00021412052
200	0xb927be6a	-0.00015997296
201	0xb89e2d30	-7.542444e-05
202	0xb9ffe621	-0.0004880885
203	0xb882b0c3	-6.2318075e-05
204	0x3a1cf67d	0.00059876574
205	0xb932c938	-0.00017050363
206	0xb9f158ee	-0.0004603336
207	0xb942ea71	-0.00018588618
208	0x3a086805	0.00052034884
209	0x3992f84c	0.00028032286
210	0xb93f1c39	-0.00018225693
211	0xb912656e	-0.0001396143
212	0xba24f42c	-0.0006292488
213	0x3a06cf9c	0.00051426305
214	0x39ad96de	0.00033109536
215	0xb9f31d79	-0.0004637053
216	0x389e5947	7.550656e-05
217	0x39b57589	0.0003461058
218	0xb934582d	-0.00017198986
219	0x39c6f8bd	0.00037950827
220	0x38341617	4.2935917e-05
221	0x3954070a	0.00020220518
222	0xb9e6bde4	-0.00044010498
223	0x39e90701	0.00044446441
224	0xb9c108f7	-0.00036818508
225	0x3a024798	0.0004969775
226	0xb9ca9ff7	-0.00038647625
227	0xb9f7bbd8	-0.00047251466
228	0x39eb6298	0.0004489615
229	0xb7004ae0	-7.646828e-06
230	0xb89e4c61	-7.548254e-05
231	0x38d80c0c	0.000103019265
232	0xb9f109ff	-0.0004597455
233	0xb9e17efb	-0.00043009952
234	0xb8116dd8	-3.4672994e-05
235	0x38b34885	8.548893e-05
236	0xb9d7df6b	-0.00041174455
237	0x397a89b9	0.00023893164
238	0x39e1304b	0.00042951325
239	0xb94997be	-0.00019225382
240	0xb9e365d4	-0.00043372682
241	0x38434d45	4.6563586e-05
242	0xb92bf62e	-0.0001639954
243	0x39f4aa8a	0.00046666368
244	0x392fd0bb	0.00016767059
245	0x38b3119e	8.5386666e-05
246	0xb9a780ac	-0.0003194859
247	0xb9887fd1	-0.00026035172
248	0x39ecc1e9	0.00045157902
249	0x384439df	4.6783938e-05
250	0x38cacde2	9.670459e-05
251	0xb9853c1a	-0.00025412516
252	0xba1a0097	-0.00058747217
253	0x39144d69	0.00014143217
254	0x39385b2b	0.0001758157
255	0xb91a8f80	-0.00014740042
