model.tflite (tflite, 148880 bytes, 10 tensors)

arith.constant f4 [32]
-0.009262127 -0.0081965765 0.020289069 0.014512251 0.01772285 -0.007311206 0.0 -0.0071144197
-0.019919714 0.03994958 0.0103854025 -0.013706209 0.016406614 0.0038903318 0.00081846083 0.021352246
0.011606831 -0.005989868 0.022967137 -0.019912098 0.035552137 0.021008316 -0.0068291123 -0.0060008713
-0.010931069 -0.0069078878 0.007900214 0.011787944 -0.0052587036 -0.0050832075 0.0 0.0084190555
00000000: 2dc0 17bc ef4a 06bc 4335 a63c cbc4 6d3c
00000010: 832f 913c d792 efbb 0000 0000 1420 e9bb
00000020: ab2e a3bc 2ca2 233d 8927 2a3c 0290 60bc
00000030: 2a67 863c f0f4 7e3b fa8d 563a e8ea ae3c
00000040: 942a 3e3c a846 c4bb 9425 bc3c b21e a3bc
00000050: 1e9f 113d a219 ac3c bfc6 dfbb f5a2 c4bb
00000060: 3a18 33bc 905b e2bb e66f 013c 3822 413c
00000070: 3451 acbb 0991 a6bb 0000 0000 14f0 093c

arith.constant1 f4 [32]
-0.0017670263 0.033938114 -0.0050593344 0.000116929165 -0.03276359 -0.012446722 0.009781682 -0.0220961
-0.008667259 -0.021289064 0.00059948623 0.019375093 0.032177363 0.032315157 0.004912655 -0.031130236
-0.0065386607 -0.027589368 -0.002234845 -0.012501558 0.03430721 -0.037487775 -0.0052536353 0.023359295
-0.0052957186 0.032973222 -0.0007739963 0.017292865 -0.018792626 0.02323405 -0.007197048 -0.02752323
00000000: 909b e7ba b102 0b3d c6c8 a5bb de37 f538
00000010: 1d33 06bd 56ed 4bbc 5943 203c e102 b5bc
00000020: 1e01 0ebc 6766 aebc d726 1d3a 84b8 9e3c
00000030: 69cc 033d e65c 043d 56fa a03b d604 ffbc
00000040: 4342 d6bb 1903 e2bc 7a76 12bb 56d3 4cbc
00000050: b885 0c3d c88c 19bd b026 acbb fe5b bf3c
00000060: b587 adbb ee0e 073d 03e6 4aba c4a9 8d3c
00000070: fef2 99bc 5655 be3c 37d5 ebbb 6678 e1bc

arith.constant2 f4 [32]
0.0 0.024025358 -0.029734638 -0.05599161 0.044210274 -0.033792388 -0.00022792762 -0.00020442755
-0.0005626211 -0.0024342574 -0.008532199 0.008184781 -0.063329555 -0.024986798 0.0 -0.0076269777
0.006325748 -0.039442696 0.017628841 0.018858453 0.033372436 0.001604704 -0.030329384 0.02824022
0.0 0.005931688 0.03192298 -0.052805156 0.02473191 -0.04820538 -0.0521778 -0.046282846
00000000: 0000 0000 d4d0 c43c 0e96 f3bc 7557 65bd
00000010: d515 353d e369 0abd dbff 6eb9 9a5b 56b9
00000020: dd7c 13ba 1088 1fbb a3ca 0bbc 7619 063c
00000030: edb2 81bd 1db1 ccbc 0000 0000 baeb f9bb
00000040: 3848 cf3b aa8e 21bd 5c6a 903c 0b7d 9a3c
00000050: 89b1 083d ee54 d23a 5475 f8bc 0958 e73c
00000060: 0000 0000 9b5e c23b acc1 023d 384a 58bd
00000070: 939a ca3c 0173 45bd 64b8 55bd 1593 3dbd

arith.constant3 f4 [32, 3, 3, 32]
0.027333543 -0.008034229 0.009102114 -0.09683144 -0.07527371 0.04194975 0.05484964 0.051496398
0.015430331 0.051867098 0.012423396 -0.024292765 0.06059653 -0.056397535 0.016710589 0.0845424
0.051862 -0.08503377 -0.02506157 0.039762836 -0.062228803 0.03868732 0.04648523 -0.10477008
0.049052194 -0.09782335 0.067613274 0.0017945818 0.053478852 0.024015306 -0.032595105 -0.00394108
-0.05891879 -0.067671746 -0.060750954 0.07688271 0.08147856 -0.023237415 -0.013296449 -0.09339455
0.020837769 -0.070851795 -0.10005955 -0.11079841 -0.0024330597 0.033903312 0.0080751125 -0.07583475
-0.040654555 -0.10203686 -0.014485964 0.05452715 0.04600367 0.03224218 0.046313867 -0.088873215
0.09616396 -0.060091745 -0.018479928 -0.019303517 0.030347653 -0.07659983 0.037125245 -0.074690975
-0.051256 0.017346699 -0.022218235 -0.035916712 -0.08283419 0.06602614 0.038285144 0.03760941
0.010974184 0.05618901 -0.08040975 -0.014463284 0.032952245 0.03267733 -0.017573163 0.022855695
0.10042322 0.03244724 -0.012259649 -0.049699523 0.038316935 -0.01676891 -0.02314692 0.047504116
-0.092564374 -0.00054235355 -0.046954714 0.014194386 0.032048848 -0.049184922 -0.100419715 0.0682929
-0.034247816 -0.07906276 0.033148617 -0.021380126 -0.0021708945 0.07471892 0.07076152 0.03292456
-0.009837158 0.08183282 -0.047819577 -0.072199546 0.052037783 -0.06894886 0.0066443407 -0.079306684
0.020620033 -0.09239889 -0.08825736 -0.05368981 -0.009175628 -0.06162782 0.034847558 -0.07659269
-0.09710812 0.06189304 0.02930434 0.06877694 -0.062049355 -0.025550831 -0.087932736 -0.07092367
-0.005291097 -0.021096589 -0.027312502 0.048189912 -0.10141194 0.054486662 -0.025783418 -0.054429226
-0.09969944 -0.03350423 -0.044625245 -0.09260218 -0.022062322 0.07781622 0.08831406 0.0205927
0.040643483 -0.104497716 -0.023129933 0.03137136 -0.03629584 0.017713806 -0.036067255 -0.05621137
0.09394921 -0.06433276 -0.035006024 0.028004352 -0.030984633 -0.011175688 -0.046369422 -0.050974146
-0.07925812 -0.020528635 -0.017016001 -0.058854043 0.040077016 -0.037137315 0.0357057 -0.05601415
0.022120021 -0.0005192166 -0.08556365 -0.09545761 0.015801843 0.033331733 -0.065099254 -0.108187795
0.07867591 -0.060623497 -0.083538435 0.08655081 0.01770483 0.019162487 0.02808392 0.03674662
-0.09674042 -0.06855845 -0.02224055 -0.023455886 -0.077458315 -0.020225793 0.014442638 -0.08547301
0.04590231 -0.09093432 -0.07038553 -0.078282736 0.053500462 -0.040435262 0.011401498 0.05220493
-0.044045158 0.019734506 0.076126546 -0.09696179 0.04016292 -0.045616996 -0.054581422 -0.09234964
0.05570747 -0.078495964 -0.10362633 0.09073895 -0.03522687 0.026665606 -0.0894245 0.001346983
0.054977402 -0.0893373 -0.0998449 -0.07374391 -0.049986955 0.07632735 0.0328746 -0.046889093
-0.045228593 0.037003413 -0.011187032 0.04522278 0.034313798 -0.08215645 -0.039546825 -0.08636354
0.07194154 0.039943397 0.026651338 -0.02231906 -0.047735676 0.05129903 -0.05262784 -0.00728643
-0.08472405 -0.09557788 0.07087538 0.012970556 0.08791228 0.036472667 0.05226314 -0.04215508
0.076593965 0.025140233 -0.06528689 0.002733511 0.025038166 0.052006457 0.082228884 0.014436968
00000000: 98ea df3c 00a2 03bc 0821 153c 904f c6bd
00000010: 1a29 9abd 80d3 2b3d 04aa 603d e3ed 523d
00000020: 80cf 7c3c 9872 543d 808b 4b3c 9f01 c7bc
00000030: 1134 783d 1a01 67bd a5e4 883c 9124 ad3d
00000040: 406d 543d 2f26 aebd ec4d cdbc 5bde 223d
00000050: a1e3 7ebd 9876 1e3d 4c67 3e3d b291 d6bd
00000060: f4ea 483d 9c57 c8bd d478 8a3d 2c38 eb3a
00000070: a40c 5b3d bfbb c43c 7282 05bd 2d24 81bb
00000080: d454 71bd 7c97 8abd fed5 78bd af74 9d3d
00000090: 3bde a63d 645c bebc 59d9 59bc a445 bfbd
000000a0: f8b3 aa3c bf1a 91bd 05ec ccbd 47ea e2bd
000000b0: f873 1fbb 33de 0a3d 7a4d 043c 404f 9bbd
000000c0: 6485 26bd b4f8 d0bd 8956 6dbc dc57 5f3d
000000d0: 586e 3c3d 6010 043d 9cb3 3d3d 2903 b6bd
000000e0: 9cf1 c43d c322 76bd 3863 97bc 6922 9ebc
000000f0: a49b f83c 5fe0 9cbd a410 183d 95f7 98bd
00000100: d0f1 51bd aa1a 8e3c 0403 b6bc 671d 13bd
00000110: f9a4 a9bd b638 873d e2d0 1c3d 530c 1a3d
00000120: 10cd 333c 7326 663d dead a4bd 69f7 6cbc
00000130: eff8 063d aad8 053d 98f5 8fbc de3b bb3c
00000140: b0aa cd3d 66e7 043d b2dc 48bc ba91 4bbd
00000150: 38f2 1c3d f45e 89bc 9c9e bdbc ad93 423d
00000160: 6492 bdbd bb2c 0eba 9653 40bd 928f 683c
00000170: a745 033d 2176 49bd daa8 cdbd 26dd 8b3d
00000180: 7047 0cbd a8eb a1bd d8c6 073d 6025 afbc
00000190: 9145 0ebb 3c06 993d 6aeb 903d e7db 063d
000001a0: 082c 21bc f797 a73d 76de 43bd 5bdd 93bd
000001b0: 9225 553d 0f35 8dbd c5b8 d93b 8b6b a2bd
000001c0: 58eb a83c a13b bdbd 46c0 b4bd d9e9 5bbd
000001d0: 6055 16bc 746d 7cbd 50bc 0e3d a1dc 9cbd
000001e0: 9fe0 c6bd 8e83 7d3d a80f f03c edda 8c3d
000001f0: 7727 7ebd fa4f d1bc 1416 b4bd 6e40 91bd
00000200: f060 adbb c1d2 acbc 78be dfbc c962 453d
00000210: 10b1 cfbd 682d 5f3d bf37 d3bc 2ef1 5ebd
00000220: 382f ccbd bb3b 09bd f6c8 36bd 36a6 bdbd
00000230: 0bbc b4bc 1c5e 9f3d 00de b43d 06b2 a83c
00000240: c879 263d e602 d6bd fc7a bdbc 417f 003d
00000250: f2aa 14bd 8b1c 913c 42bb 13bd e53d 66bd
00000260: 7268 c03d e5c0 83bd 7a62 0fbd 6269 e53c
00000270: 7cd3 fdbc 3c1a 37bc dded 3dbd 44ca 50bd
00000280: 1552 a2bd ab2b a8bc 2465 8bbc f010 71bd
00000290: cc27 243d 4c1d 18bd 2440 123d 186f 65bd
000002a0: 0c35 b53c 091c 08ba ff3b afbd 487f c3bd
000002b0: de72 813c db86 083d c252 85bd 9091 ddbd
000002c0: d620 a13d 5850 78bd 3316 abbd 8d41 b13d
000002d0: b809 913c a6fa 9c3c 4010 e63c a083 163d
000002e0: d71f c6bd 5f68 8cbd d031 b6bc 8f26 c0bc
000002f0: 77a2 9ebd 90b0 a5bc d0a0 6c3c 790c afbd
00000300: 1004 3c3d c63b babd 4a26 90bd b352 a0bd
00000310: 4d23 5b3d 729f 25bd 59cd 3a3c d6d4 553d
00000320: b268 34bd 42aa a13c 3ce8 9b3d e793 c6bd
00000330: e081 243d e3d8 3abd c590 5fbd cf21 bdbd
00000340: 842d 643d 7ec2 a0bd 0b3a d4bd 58d5 b93d
00000350: 0d4a 10bd d471 da3c 3124 b7bd 408d b03a
00000360: fc2f 613d 79f6 b6bd 7c7b ccbd 0c07 97bd
00000370: 1fbf 4cbd 8451 9c3d 84a7 063d c70e 40bd
00000380: 9e41 39bd e490 173d d049 37bc 863b 393d
00000390: a08c 0c3d a441 a8bd dafb 21bd 5edf b0bd
000003a0: 1656 933d b09b 233d e853 da3c 76d6 b6bc
000003b0: 7c86 43bd ef1e 523d 4a90 57bd 01c3 eebb
000003c0: cd83 adbd 56be c3bd 1c27 913d 7482 543c
000003d0: 5a0b b43d 5d64 153d e011 563d ceaa 2cbd
000003e0: 4cdd 9c3d e4f2 cd3c 22b5 85bd b424 333b
000003f0: d71c cd3c b904 553d 9e67 a83d 0889 6c3c

arith.constant4 f4 [32, 3, 3, 32]
0.028830394 0.022852197 -0.08323447 0.017237924 0.030871632 0.027230084 0.03023554 0.025406368
-0.111063674 0.08524419 0.013777043 0.098877445 0.016005266 0.038032643 -0.016044654 0.082413085
-0.09839631 -0.09198706 -0.02135943 0.07270568 -0.023521429 0.07041808 0.0142277535 -0.03805144
-0.043661006 -0.053292256 -0.09933758 -0.029618504 -0.060617376 -0.013895021 0.07838664 -0.06676852
0.0042664185 -0.0679965 -0.029311944 -0.026545078 0.028484635 -0.002300639 -0.036466304 0.055326067
-0.08670428 -0.010458272 0.013495713 0.10242492 -0.058188006 -0.01598593 0.04545051 0.01735966
-0.044731982 0.07100831 -0.093383044 0.10641856 -0.015281397 -0.0051371176 -0.09272909 0.08452337
0.061500937 0.059579965 0.068278834 0.036020365 -0.017117197 -0.08644301 0.085918635 0.026872538
0.0643955 0.041259434 0.104345396 -0.030660002 0.055202812 0.008953802 0.04086742 -0.08769395
0.1126217 -0.087625846 -0.067145586 0.031180348 0.0035135392 -0.021451136 -0.024305657 0.08675866
-0.087277524 0.028144833 0.03896761 0.018408842 0.03703975 -0.070532426 -0.04633133 -0.055114254
-0.057196658 0.08478903 -0.029500473 0.061939694 0.1134025 0.010792383 0.04709664 -0.013471432
0.08175409 -0.08552155 -0.005765728 0.011773525 -0.030992055 -0.06055108 -0.099552356 0.012086105
-0.08063265 -0.012076094 -0.07145097 -0.03608163 0.09006514 -0.03821304 0.04062727 0.04840953
-0.07977812 0.03383768 -0.021890422 -0.0071167964 0.04659478 0.047118954 0.023184372 -0.013392882
-0.024195015 0.043587804 -0.113561556 0.081239544 -0.10961452 -0.08351612 0.039999533 -0.0796399
0.023872256 0.0010105656 0.02833552 0.04908365 0.107628085 -0.073351815 0.001228567 0.0029571645
0.07856721 -0.087512806 -0.009996528 0.044847842 -0.105068006 -0.07998592 -0.080054715 0.018576965
0.06668237 -0.09732571 0.049773853 0.09352715 -0.069738485 0.0067737456 0.015985733 -0.07658643
-0.067254715 0.052920926 -0.041055206 0.02790921 -0.03387577 -0.08905463 0.054259643 -0.0041221613
0.044851273 0.12973128 -0.05106735 0.0029567906 0.008246614 0.056789838 -0.08762644 0.1509038
-0.07904779 0.029282222 0.10821354 -0.00839193 -0.003718798 0.018560892 0.098984376 -0.053328052
-0.06431142 -0.088511415 -0.030397356 -0.080462195 -0.051271416 -0.032938115 -0.111271255 0.026750209
0.058220178 0.047340404 -0.051339228 0.047621015 0.0755757 -0.030658586 -0.020446578 0.043916274
0.07880561 0.014892475 -0.0008389568 -0.08853966 0.08762555 0.049600735 0.028652294 0.13517374
-0.045893755 0.044642054 -0.045736622 -0.07349828 -0.03692114 0.06123647 -0.09454531 0.06444243
0.108825445 0.037800886 0.07658793 0.092635155 0.030730762 0.007947654 0.03891678 0.036947347
-0.07515979 0.020486401 0.049729012 -0.07658721 0.002589039 0.02748985 -0.10812112 -0.019936718
0.07216354 0.11168498 0.035295557 -0.006185211 0.112570286 0.05051626 0.008183594 0.09512486
0.085044 -0.0034113731 -0.05675909 0.03214118 0.020698467 -0.05059783 0.07994273 -0.019546846
0.043262023 -0.029364355 0.010006819 0.058133993 -0.075314425 0.05079939 -0.12610368 -0.10312827
0.09851718 0.07928374 0.13017493 -0.08824196 -0.1079621 -0.033210307 0.06349319 0.06499363
00000000: b82d ec3c 8834 bb3c d576 aabd 8c36 8d3c
00000010: 81e6 fc3c a011 df3c 86b0 f73c 0421 d03c
00000020: 5a75 e3bd 8294 ae3d 1bb9 613c 4280 ca3d
00000030: 7a1d 833c 1ec8 1b3d 1470 83bc 31c8 a83d
00000040: 0184 c9bd b663 bcbd f9f9 aebc b7e6 943d
00000050: 03b0 c0bc 5b37 903d 861b 693c d4db 1bbd
00000060: e2d5 32bd fb48 5abd 8071 cbbd 81a2 f2bc
00000070: ed49 78bd f1a7 63bc 2d89 a03d efbd 88bd
00000080: 50cd 8b3b c041 8bbd 9a1f f0bc 1075 d9bc
00000090: 9c58 e93c 51c6 16bb b15d 15bd 969d 623d
000000a0: 0392 b1bd 2c59 2bbc 1f1d 5d3c 28c4 d13d
000000b0: 8c56 6ebd edf4 82bc 502a 3a3d d835 8e3c
000000c0: e238 37bd ce6c 913d 9c3f bfbd f9f1 d93d
000000d0: d35e 7abc 4455 a8bb c0e8 bdbd 971a ad3d
000000e0: 68e8 7b3d 1f0a 743d c6d5 8b3d 178a 133d
000000f0: 5d39 8cbc 0809 b1bd 1cf6 af3d cc23 dc3c
00000100: cae1 833d a7ff 283d 0ab3 d53d af2a fbbc
00000110: 581c 623d f8b2 123c 9964 273d e398 b3bd
00000120: 35a6 e63d 2e75 b3bd a083 89bd ee6d ff3c
00000130: 6843 663b 4bba afbc a81c c7bc 86ae b13d
00000140: 8fbe b2bd fe8f e63c 809c 1f3d 24ce 963c
00000150: feb6 173d 4e73 90bd ecc5 3dbd 7cbf 61bd
00000160: 0b47 6abd dfa5 ad3d faaa f1bc 7ab4 7d3d
00000170: 923f e83d 89d2 303c 68e8 403d 48b7 5cbc
00000180: b06e a73d ec25 afbd 6fee bcbb bee5 403c
00000190: 0de3 fdbc 6904 78bd 1be2 cbbd cc04 463c
000001a0: bb22 a5bd cfda 45bc e354 92bd 55ca 13bd
000001b0: 1274 b83d 4785 1cbd c868 263d 1249 463d
000001c0: b662 a3bd 6199 0a3d 8b53 b3bc 0434 e9bb
000001d0: 2bda 3e3d ceff 403d 27ed bd3c d26d 5bbc
000001e0: a034 c6bc 2089 323d f692 e8bd eb60 a63d
000001f0: 947d e0bd 800a abbd 8dd6 233d 3e1a a3bd
00000200: c08f c33c f474 843a e41f e83c f00b 493d
00000210: 1d6c dc3d 7a39 96bd de07 a13a fdcc 413b
00000220: d8e7 a03d ea39 b3bd 7ac8 23bc 5fb2 373d
00000230: e52d d7bd a8cf a3bd baf3 a3bd b82e 983c
00000240: c490 883d b452 c7bd abdf 4b3d 2a8b bf3d
00000250: 0dd3 8ebd 4cf6 dd3b 83f4 823c 59d9 9cbd
00000260: d7bc 89bd 9dc3 583d 8129 28bd dba1 e43c
00000270: 52c1 0abd 4662 b6bd 5c3f 5e3d 3213 87bb
00000280: f8b5 373d 47d8 043e ff2b 51bd b7c6 413b
00000290: ce1c 073c 769c 683d 7e75 b3bd 8786 1a3e
000002a0: cfe3 a1bd 45e1 ef3c 0f9f dd3d 4e7e 09bc
000002b0: 14b7 73bb 030d 983c 52b8 ca3d 846e 5abd
000002c0: b5b5 83bd 7945 b5bd e003 f9bc 5dc9 a4bd
000002d0: fa01 52bd 1eea 06bd 2fe2 e3bd 4123 db3c
000002e0: 4878 6e3d 03e8 413d 1549 52bd 410e 433d
000002f0: 6fc7 9a3d b727 fbbc 957f a7bc 8de1 333d
00000300: d664 a13d 91ff 733c 70ed 5bba 4854 b5bd
00000310: 0675 b33d 242a 4b3d 37b8 ea3c fc6a 0a3e
00000320: 17fb 3bbd 96da 363d 5356 3bbd 4486 96bd
00000330: 9f3a 17bd 18d3 7a3d f9a0 c1bd 65fa 833d
00000340: e0df de3d 1ad5 1a3d 22da 9c3d 80b7 bd3d
00000350: 14bf fb3c e136 023c 3467 1f3d 1a56 173d
00000360: 60ed 99bd 19d3 a73c a6b0 4b3d c1d9 9cbd
00000370: deac 293b 6532 e13c 9b6e ddbd 5452 a3bc
00000380: 7aca 933d 18bb e43d 1392 103d 4fad cabb
00000390: 408b e63d 23ea 4e3d 7b14 063c d3d0 c23d
000003a0: 8c2b ae3d 5891 5fbb 387c 68bd 78a6 033d
000003b0: d58f a93c ac3f 4fbd 04b9 a33d b520 a0bc
000003c0: 8533 313d 848d f0bc a4f3 233c e91d 6e3d
000003d0: 733e 9abd 0513 503d 5321 01be ea34 d3bd
000003e0: 60c3 c93d 835f a23d 944c 053e 33b8 b4bd
000003f0: 3c1b ddbd 8807 08bd b808 823d 611b 853d

arith.constant5 f4 [3, 128]
0.04841883 0.12325312 -0.1813635 0.13415349 -0.1276373 -0.07327174 0.24327476 -0.018923284
-0.17469193 -0.14716117 0.120848976 0.042693824 -0.12564023 -0.00919275 -0.06020301 -0.025808236
0.052670155 -0.1036436 0.004527211 -0.16450322 -0.032341145 -0.19728708 0.111592665 -0.08360229
-0.103801124 0.17841081 -0.11241743 -0.0732513 -0.012414576 -0.19011886 -0.23779397 -0.2130721
-0.13945709 0.11085874 -0.06525877 -0.08136417 -0.17753504 0.024910456 0.010343854 0.1901425
-0.12770589 0.13919173 -0.10712898 -0.14183508 -0.18160252 -0.15835278 -0.13043961 -0.10413536
-0.109141216 -0.06683232 0.0109444205 -0.08328887 0.1771462 0.15213542 0.026531965 -0.16134161
0.07237689 -0.118973635 -0.12652692 -0.154471 -0.19493186 -0.14725149 0.13823317 -0.15190496
-0.20089576 0.17892712 0.13446344 0.16807218 0.07890753 -0.19712073 -0.08476339 0.059176758
-0.19683194 -0.041411042 -0.050442684 0.2505756 0.12866314 -0.1739309 0.08181566 -0.123000324
0.16282295 -0.19863911 0.06869488 -0.041820604 -0.16945566 0.02207129 0.14955102 -0.12576301
-0.15603954 -0.15931933 0.02368983 0.09269409 -0.10119477 0.09702373 -0.048072033 -0.0021764636
0.036483638 0.18714853 0.052961726 -0.14153549 0.05333422 -0.19326448 -0.12868537 0.11186483
-0.055384595 0.034132905 0.13284375 -0.097315885 0.1785533 -0.07224019 0.16312656 0.08475218
-0.09146266 -0.16861078 0.20793182 -0.21884727 -0.11160042 0.10320077 -0.027644226 0.010285337
-0.0972259 -0.19651388 0.016840879 -0.094225414 -0.10657341 0.1444739 0.1734536 -0.11882005
-0.14605848 -0.13713227 -0.03736125 -0.08820991 0.07864584 -0.0037893003 -0.14046219 0.011325288
-0.037822887 0.18944016 -0.01094696 0.07927855 -0.02319753 0.05066546 -0.12870185 0.16161014
0.06524479 -0.2061651 -0.16199705 -0.13050932 0.103585474 0.067787915 -0.17144448 -0.030806066
-0.06729731 -0.09071333 -0.21207346 -0.16861908 0.050823845 0.19259307 -0.013456041 -0.14973047
0.068661965 0.0633076 0.013213525 0.05792926 -0.09430845 0.10533245 -0.18222938 -0.16544387
0.1544785 -0.091522776 -0.09140728 -0.19424716 0.18818258 -0.19235025 0.227029 0.021469688
-0.21913907 0.0699015 0.23660684 -0.20833783 0.03697389 -0.0063382834 0.12367638 0.22496325
-0.09520627 -0.1322414 0.04537275 -0.069617555 -0.007037837 0.12856846 0.08818656 -0.06282017
-0.100657396 -0.21363805 -0.1004277 -0.11701935 0.13664566 -0.17536218 -0.2062048 -0.171824
-0.11973357 -0.19248341 -0.22652745 0.12835498 0.10298034 0.14735813 -0.19440404 -0.21733585
-0.20011832 -0.20842247 -0.047375027 0.14789474 -0.100158855 0.18930787 0.17499037 0.08093096
0.0044240355 0.23091596 -0.12989423 0.008916519 0.097243406 0.051795743 -0.21977073 -0.13220972
-0.1563083 0.18780601 -0.028247844 0.05029524 -0.115802646 0.13223802 -0.15943684 -0.019794265
0.03161557 0.22826973 -0.052900214 0.024633935 -0.1355116 -0.08772945 0.121740796 -0.1062439
0.0716459 -0.09458362 -0.17962255 0.13803017 -0.21132876 -0.08372602 -0.058220737 -0.06817321
-0.094285116 0.17724659 0.043788485 0.105770335 0.13936298 0.0119638 -0.108460665 0.0110844225
00000000: d352 463d 226c fc3d 5ab7 39be 885f 093e
00000010: 5ab3 02be 7e0f 96bd 051d 793e 0105 9bbc
00000020: 71e2 32be 6bb1 16be ab7f f73d b8df 2e3d
00000030: d5a7 00be 309d 16bc 6e97 76bd cb6b d3bc
00000040: a9bc 573d 1943 d4bd 0059 943b 8873 28be
00000050: 2678 04bd a005 4abe b28a e43d ad37 abbd
00000060: af95 d4bd 53b1 363e 1c3b e6bd c704 96bd
00000070: 8166 4bbc 85ae 42be 4380 73be 932f 5abe
00000080: d7cd 0ebe e809 e33d 64a6 85bd 42a2 a6bd
00000090: bfcb 35be 0311 cc3c 4579 293c b7b4 423e
000000a0: 55c5 02be 4788 0e3e 7066 dbbd 373d 11be
000000b0: 03f6 39be 3b27 22be f691 05be eb44 d5bd
000000c0: 6e85 dfbd 62df 88bd 3a50 333c 5b93 aabd
000000d0: d065 353e 63c9 1b3e 9059 d93c bc36 25be
000000e0: 563a 943d 73a8 f3bd 4690 01be a52d 1ebe
000000f0: 389c 47be 18c9 16be ff8c 0d3e f98c 1bbe
00000100: 9eb7 4dbe ac38 373e c9b0 093e 1d1b 2c3e
00000110: 459a a13d 04da 49be 6e98 adbd 5463 723d
00000120: 508e 49be a09e 29bd fd9c 4ebd 724b 803e
00000130: 45c0 033e f11a 32be f88e a73d 98e7 fbbd
00000140: 0fbb 263e 0d68 4bbe e7af 8c3d 154c 2bbd
00000150: c985 2dbe dace b43c e723 193e 05c8 00be
00000160: d4c8 1fbe 9b24 23be 2d11 c23c 66d6 bd3d
00000170: 343f cfbd 61b4 c63d 2ee7 44bd 00a3 0ebb
00000180: de6f 153d dda3 3f3e 65ee 583d aeee 10be
00000190: fc74 5a3d 20e7 45be 19c6 03be 6319 e53d
000001a0: f5da 62bd f2ce 0b3d 3108 083e 8d4d c7bd
000001b0: add6 363e aaf2 93bd a60a 273e 8d92 ad3d
000001c0: c650 bbbd 4ea8 2cbe 14ec 543e 8019 60be
000001d0: c38e e4bd ed5a d33d 2576 e2bc d583 283c
000001e0: 5f1e c7bd ef3a 49be e2f5 893c 41f9 c0bd
000001f0: 2943 dabd f7f0 133e d29d 313e ed57 f3bd
00000200: 5b90 15be 676c 0cbe 1c08 19bd 66a7 b4bd
00000210: 1211 a13d e955 78bb 52d5 0fbe b38d 393c
00000220: 2cec 1abd 9afc 413e e15a 33bc cb5c a23d
00000230: bf08 bebc 9686 4f3d 6bca 03be 217d 253e
00000240: 0f9f 853d f21c 53be 8ee2 25be 3ca4 05be
00000250: 9f24 d43d 64d4 8a3d 248f 2fbe 015d fcbc
00000260: 2cd3 89bd e9c7 b9bd c929 59be 7baa 2cbe
00000270: aa2c 503d 1e37 453e ba76 5cbc f252 19be
00000280: a59e 8c3d 6aa7 813d 8a7d 583c 3b47 6d3d
00000290: ca24 c1bd 8ab8 d73d 579a 3abe 1e6a 29be
000002a0: 9d2f 1e3e 4b70 bbbd bd33 bbbd bae8 46be
000002b0: efb2 403e 77f7 44be 4a7a 683e 33e1 af3c
000002c0: fe65 60be 8528 8f3d 1049 723e 8356 55be
000002d0: ef71 173d 60b1 cfbb 0b4a fd3d c45c 663e
000002e0: 81fb c2bd 4a6a 07be c7d8 393d a693 8ebd
000002f0: a89d e6bb 73a7 033e 289b b43d dca7 80bd
00000300: 7725 cebd efc3 5abe 0aad cdbd d7a7 efbd
00000310: d7ec 0b3e 2592 33be 5a27 53be a1f2 2fbe
00000320: e036 f5bd 5f1a 45be d0f6 67be 7d6f 033e
00000330: 5be7 d23d 0de5 163e da11 47be 4a8d 5ebe
00000340: d1eb 4cbe b36c 55be 510c 42bd b871 173e
00000350: 1620 cdbd ecd9 413e ad30 333e 22bf a53d
00000360: 80f7 903b 3c75 6c3e fe02 05be 9716 123c
00000370: 8d27 c73d c627 543d 940b 61be fc61 07be
00000380: 480f 20be 3850 403e 0668 e7bc 6202 4e3d
00000390: f029 edbd 6769 073e 6943 23be 9527 a2bc
000003a0: 547f 013d 8abf 693e e5ad 58bd 1bcd c93c
000003b0: 8ec3 0abe 7fab b3bd 3d53 f93d 6796 d9bd
000003c0: 16bb 923d 0fb5 c1bd f9ee 37be c857 0d3e
000003d0: 9166 58be 8c78 abbd de78 6ebd 659e 8bbd
000003e0: 8e18 c1bd 2180 353e 8e5b 333d 1e9e d83d
000003f0: 2bb5 0e3e d003 443c a020 debd 709b 353c

arith.constant6 f4 [128, 128]
-0.046603292 0.10007735 0.084002785 0.096755706 0.03853075 -0.027417958 -0.013191327 0.17370588
-0.06402313 -0.04662362 -0.00083989976 -0.06563773 -0.07827981 0.044898205 -0.08668766 0.08745124
0.019683134 -0.13955711 0.12218227 0.024962718 0.0044005825 0.15545595 0.07042131 -0.04382515
-0.08145741 -0.104251064 0.012606008 0.16148265 0.12940125 -0.052352265 -0.14206722 0.09334692
-0.015827239 -0.017148979 0.008236979 0.041896146 -0.12104423 -0.08147876 -0.0797727 -0.033596255
0.070317544 -0.05313866 0.10991078 -0.07128057 0.20739731 -0.022241412 -0.011204828 0.0533599
-0.14468947 -0.05418045 0.086348146 0.124483876 -0.10360029 0.04291689 0.059405237 -0.03404838
0.055166863 -0.021583825 0.12817729 0.1796478 0.11926736 -0.10889651 0.12563132 -0.02922434
-0.08906893 -0.0020022525 -0.027481655 0.103287354 0.15689759 0.015978053 0.06542143 0.055251297
-0.032110494 0.08541153 -0.108986616 -0.033117395 0.013777691 0.14531514 0.076058246 0.03775818
-0.066143505 0.05294484 0.18656601 -0.08652737 0.11608555 0.035121646 -0.06326719 -0.15276848
-0.07936635 0.17531611 0.008846748 0.13347359 -0.022006214 0.011804938 -0.082015276 -0.1361158
-0.03843695 -0.07602417 0.022475386 0.15761326 -0.13308644 -0.08308215 -0.08885853 -0.11613498
-0.11295504 0.12085802 0.1336443 -0.036415063 -0.0971187 0.09063799 0.1568255 -0.08982087
-0.08120643 0.08745492 -0.10773954 -0.11355868 0.16549218 -0.013445378 -0.04684684 0.037592188
-0.035169885 -0.11258266 -0.12741691 -0.02869551 -0.07190572 -0.08110927 0.12690933 0.14494301
0.08792481 0.14782931 0.019929506 -0.1286345 0.12365338 -0.10857052 -0.07339199 0.0070827464
0.08107059 0.11512608 -0.04937398 0.12944305 0.15041952 -0.07110148 0.123000674 -0.059347324
0.01916217 0.14540197 -0.0032889352 0.04783382 -0.10290525 -0.050977413 -0.004062623 -0.06714308
-0.053308785 -0.021357596 0.113196865 -0.10533266 -0.14848255 -0.15024449 0.12768005 -0.09811267
0.023101807 -0.08065424 0.08444364 0.044087242 0.014788472 0.11272524 -0.06516188 -0.049676258
0.12285708 0.1209726 -0.023729118 0.1513414 0.012331319 -0.11626287 0.004673202 0.018872391
0.17593029 -0.12123892 -0.04072569 -0.028379586 -0.13178508 0.048815522 0.13458847 -0.153662
-0.03998531 0.025150524 -0.102304064 -0.09195888 -0.09057795 0.07156624 0.06805463 0.054368306
0.006736908 0.0637257 0.18974857 0.09138934 -0.066537656 0.028876718 -0.13317102 0.06646397
0.053359002 0.099438146 0.0685869 -0.042557783 -0.007597638 -0.10346332 0.0036072452 -0.12750934
0.18925115 0.059486195 0.011804942 -0.045617174 -0.022772873 0.15901342 -0.12913866 0.008250484
-0.13190344 0.019653434 -0.11161242 -0.14640626 0.05308386 0.0964389 0.050942287 0.04282718
0.0049498677 0.040427573 0.11822437 0.006046181 0.17201291 0.11655323 -0.10655114 0.0348751
0.10592192 0.22253592 -0.035176173 -0.09120199 0.062704355 0.08388743 0.11430613 0.14776278
-0.058405478 -0.09841383 -0.0041924827 -0.13536385 0.034035753 0.09303785 0.12951039 0.03750889
-0.0958039 0.029006535 0.08691892 -0.043095242 -0.12640858 -0.13466717 -0.02953881 0.11331071
00000000: 18e3 3ebd 5bf5 cc3d a709 ac3d db27 c63d
00000010: 6bd2 1d3d a09b e0bc 7020 58bc f4df 313e
00000020: 8f1e 83bd 69f8 3ebd b82c 5cba 136d 86bd
00000030: 2a51 a0bd 2ee7 373d 4d89 b1bd a319 b33d
00000040: 863e a13c 0fe8 0ebe b33a fa3d 9d7e cc3c
00000050: c332 903b d82f 1f3e 0c39 903d 0082 33bd
00000060: 24d3 a6bd 9581 d5bd 6e89 4e3c b55b 253e
00000070: c381 043e 546f 56bd 127a 11be ac2c bf3d
00000080: 20a8 81bc 047c 8cbc 65f4 063c 4b9b 2b3d
00000090: 0ae6 f7bd 56de a6bd df5f a3bd 3a9c 09bd
000000a0: a502 903d eca7 59bd e718 e13d 8cfb 91bd
000000b0: f65f 543e 9f33 b6bc 7494 37bc e98f 5a3d
000000c0: 7a29 14be 52ec 5dbd 4cd7 b03d 67f1 fe3d
000000d0: 642c d4bd 9fc9 2f3d e852 733d 5076 0bbd
000000e0: a6f6 613d 90d0 b0bc e840 033e 98f5 373e
000000f0: 7242 f43d 2205 dfbd 7fa5 003e e267 efbc
00000100: c569 b6bd 3938 03bb 3521 e1bc 5288 d33d
00000110: c3a9 203e 68e4 823c acfb 853d 2f4f 623d
00000120: 4b86 03bd 3eec ae3d 6034 dfbd 1ba6 07bd
00000130: d3bb 613c 7ecd 143e 6dc4 9b3d 52a8 1a3d
00000140: 3f76 87bd b0dc 583d 290b 3f3e 4335 b1bd
00000150: 43be ed3d b7db 0f3d 3a92 81bd 576f 1cbe
00000160: d38a a2bd 1186 333e f3f1 103c 4dad 083e
00000170: 6046 b4bc 8069 413c a0f7 a7bd f161 0bbe
00000180: 1070 1dbd 8fb2 9bbd 4d1e b83c 5f65 213e
00000190: d047 08be f926 aabd 76fb b5bd 2dd8 edbd
000001a0: f954 e7bd 6984 f73d 0dda 083e f627 15bd
000001b0: 2be6 c6bd 69a0 b93d dd96 203e 01f4 b7bd
000001c0: 8f4f a6bd 911b b33d 8ca6 dcbd 7491 e8bd
000001d0: c876 293e 014a 5cbc 79e2 3fbd 44fa 193d
000001e0: 4c0e 10bd bd91 e6bd 9479 02be d912 ebbc
000001f0: 4e43 93bd 9e1c a6bd 85f4 013e f16b 143e
00000200: ec11 b43d 9160 173e 3443 a33c c3b8 03be
00000210: fc3d fd3d 395a debd 8a4e 96bd 6216 e83b
00000220: 5608 a63d 39c7 eb3d 5f3c 4abd b88c 043e
00000230: 9307 1a3e a79d 91bd c7e7 fb3d 2e16 73bd
00000240: fcf9 9c3c 41e4 143e 2d8b 57bb 65ed 433d
00000250: fdbf d2bd b1cd 50bd c01f 85bb 5082 89bd
00000260: 505a 5abd 20f6 aebc c2d3 e73d a6b8 d7bd
00000270: cf0b 18be b1d9 19be 8fbe 023e 4cef c8bd
00000280: 0040 bd3c 0d2e a5bd caf0 ac3d d394 343d
00000290: 594b 723c 7edc e63d 9773 85bd 5579 4bbd
000002a0: 7e9c fb3d 7cc0 f73d 9163 c2bc 3df9 1a3e
000002b0: 4d09 4a3c 3a1b eebd a921 993b 469a 9a3c
000002c0: 1227 343e 1c4c f8bd fbcf 26bd 4e7c e8bc
000002d0: abf2 06be c9f2 473d 8fd1 093e 9259 1dbe
000002e0: a3c7 23bd 7908 ce3c cb84 d1bd f054 bcbd
000002f0: ef80 b9bd 5291 923d 3a60 8b3d 4db1 5e3d
00000300: 48c1 dc3b 9f82 823d 734d 423e 562a bb3d
00000310: e544 88bd de8e ec3c fc5d 08be 431e 883d
00000320: f88e 5a3d 3aa6 cb3d 4a77 8c3d 1251 2ebd
00000330: 9bf5 f8bb 94e4 d3bd 8867 6c3b cf91 02be
00000340: 0ecb 413e cca7 733d 8469 413c 13d9 3abd
00000350: 2d8e babc 6ad4 223e ed3c 04be 0a2d 073c
00000360: b211 07be 3d00 a13c 0d95 e4bd 86eb 15be
00000370: 766e 593d c281 c53d dca8 503d 8e6b 2f3d
00000380: 8032 a23b 6297 253d 9e1f f23d 0b1f c63b
00000390: 2724 303e 76b3 ee3d 7c37 dabd 31d9 0e3d
000003a0: 97ed d83d 75e0 633e e414 10bd 1cc8 babd
000003b0: 246b 803d 2ccd ab3d 5519 ea3d 204f 173e
000003c0: 953a 6fbd 318d c9bd 1861 89bb d29c 0abe
000003d0: 1369 0b3d a18a be3d 5f9e 043e eca2 193d
000003e0: d634 c4bd 1d9f ed3c 8c02 b23d a384 30bd
000003f0: 4071 01be 31e6 09be 60fb f1bc 720f e83d

arith.constant7 f4 [128]
0.03272126 0.005209712 -0.019307103 0.02401527 0.0 -0.010661853 0.016335646 -0.005343362
0.0 -0.0131006725 0.0055932296 0.005772997 -0.0070803715 0.00972988 -0.0061830636 -0.019093255
-0.005818746 0.0151507845 0.0 0.0 -0.012686668 -0.009003655 0.0 0.00069831806
0.027189823 -0.003257091 0.0131529905 0.015789676 -0.0059872353 0.012886682 0.02309293 0.0
-0.0018982021 -0.005788486 -0.011231615 -0.014271949 -0.012540891 -0.011102427 0.0070526744 0.012862051
0.0011544613 0.008611683 -0.0076577095 -0.008570978 -0.005566641 -0.0023806426 0.015434326 -0.01282515
-0.009819709 -0.011114789 -0.0077387043 0.008302997 0.014776345 0.0 0.00040296104 -0.0059229904
0.012403116 -0.005481109 0.000465444 -0.01601452 -0.0018555013 0.0 -0.014109565 -0.006074457
-0.010932769 0.012714815 -0.00027559887 0.005501068 -0.012767026 -0.011914567 -0.0077239224 0.0
-0.00040206572 0.0 0.028508037 -0.004771992 -0.0103798 0.0 -0.007881049 0.008817634
0.013555096 0.013990621 -0.004907413 -0.00347294 -0.0115458155 -0.008801804 0.0 0.0
0.021219525 -0.0022844204 -0.014723298 0.007395802 -0.012953483 -0.0036725935 0.01037117 0.0
0.021169802 -0.010584437 0.015509921 0.0027940676 0.0 -0.008501892 -0.0044056787 0.006471216
-0.012039744 0.0037880233 -0.00025511679 -0.012624063 0.01849139 -0.0056443587 -0.003991876 0.0012566407
0.0 -0.01096835 0.009303384 -0.0048074233 0.009043031 0.0056023183 -0.007839038 -0.0017999513
0.007469923 -0.00058337935 -0.011159548 -0.01352784 0.0 0.0 -0.014878814 -0.01016733
00000000: ba06 063d 3bb6 aa3b ee29 9ebc acbb c43c
00000010: 0000 0000 0daf 2ebc 55d2 853c 5f17 afbb
00000020: 0000 0000 34a4 56bc 6947 b73b 692b bd3b
00000030: 7602 e8bb 136a 1f3c 4c9b cabb 7569 9cbc
00000040: 2eab bebb ff3a 783c 0000 0000 0000 0000
00000050: bedb 4fbc 1184 13bc 0000 0000 550f 373a
00000060: 31bd de3c eb74 55bb a47f 573c 5a59 813c
00000070: 9230 c4bb a922 533c 622d bd3c 0000 0000
00000080: 18cd f8ba 57ad bdbb cf04 38bc e5d4 69bc
00000090: 4f78 4dbc f4e6 35bc 1f1a e73b 5abb 523c
000000a0: 4b51 973a 0418 0d3c 86ed fabb 4a6d 0cbc
000000b0: 5f68 b6bb 8e04 1cbb 41e0 7c3c 9420 52bc
000000c0: d8e2 20bc ce1a 36bc f594 fdbb 4b09 083c
000000d0: 7c18 723c 0000 0000 8444 d339 a515 c2bb
000000e0: 7036 4b3c e09a b3bb d606 f439 e230 83bc
000000f0: 4b34 f3ba 0000 0000 ce2b 67bc 3d0c c7bb
00000100: 5b1f 33bc cd51 503c 417e 90b9 4e42 b43b
00000110: ca2c 51bc 5135 43bc f518 fdbb 0000 0000
00000120: 59cc d2b9 0000 0000 b089 e93c 5f5e 9cbb
00000130: 0910 2abc 0000 0000 841f 01bc d677 103c
00000140: 3216 5e3c eb38 653c 5dce a0bb 449a 63bb
00000150: a92a 3dbc 7135 10bc 0000 0000 0000 0000
00000160: 92d4 ad3c 37b6 15bb fd39 71bc 7c58 f23b
00000170: d83a 54bc e5af 70bb d7eb 293c 0000 0000
00000180: 4b6c ad3c 596a 2dbc 531d 7e3c ad1c 373b
00000190: 0000 0000 854b 0bbc 835d 90bb 7f0c d43b
000001a0: 5942 45bc 7c40 783b 32c1 85b9 28d5 4ebc
000001b0: 417b 973c 50f4 b8bb 48ce 82bb ddb5 a43a
000001c0: 0000 0000 98b4 33bc 396d 183c 9787 9dbb
000001d0: 3929 143c a793 b73b 4f6f 00bc 58ec ebba
000001e0: 41c6 f43b eded 18ba 89d6 36bc e0a3 5dbc
000001f0: 0000 0000 0000 0000 45c6 73bc df94 26bc

arith.constant8 f4 [3]
0.002245888 -0.011490379 0.0079999715
00000000: c02f 133b 2542 3cbc 5012 033c

sequential_1/conv2d_1/Relu;sequential_1/conv2d_1/add;sequential_1/conv2d_1/convolution; f4 [32, 3, 3, 3]
0.0004149873 -0.00046756276 0.00011824546 -0.00047668608 -0.00037413454 -0.00031528756 -0.00015186793 -0.00012545333
-0.00046575879 -0.00013722772 -0.0004867146 -0.000118057964 -0.0002584061 -0.00023766959 0.0002040186 -0.00037710593
-1.4449101e-05 -0.00013752244 -0.0005172932 0.0001398854 5.410688e-05 0.000117714444 -0.00032908647 -0.0002669908
-0.00017141318 0.00020267555 -0.0003183147 0.00017454506 0.00024642426 0.0003029955 -0.0005658637 0.00014111817
-0.0005511907 -0.0004535293 -0.0005037348 0.00031735311 2.882123e-05 -7.487548e-05 -8.647126e-05 -0.00030411922
-0.00052824704 -2.5325806e-05 0.00035757507 0.00012677327 0.00063016516 -0.00048286346 0.00043912802 7.190582e-05
-4.461428e-05 0.00026769695 0.00015891407 0.00027320656 -3.9986408e-05 0.00055250473 -0.000243786 -0.000276816
-0.00010283437 -0.00026840327 0.00013940739 0.00018750287 -0.00054494955 0.00039799002 0.0003644829 0.00037004836
0.0003781568 0.00026762948 -0.0002924029 -0.00036796884 0.00033758662 9.967135e-05 0.0003246542 0.00044955494
0.00022379319 0.00018013669 0.00050064654 -5.207819e-05 -9.1241964e-05 0.00017086824 -0.00024661483 0.0005033248
-0.00021174023 -4.1592542e-05 -0.0002959764 -1.7741764e-05 0.00021767656 0.0003761159 -0.0001560777 -0.00029347697
0.00047318055 -0.00034237705 -0.00036950223 -5.7376066e-05 -0.00040086816 0.0003633653 0.00025516452 0.000538069
-0.0003389656 -4.243877e-05 0.00015918167 0.00015387367 -0.00017458784 0.0005102984 0.00046046602 -8.602099e-05
0.00041311642 0.00022126839 0.00045372787 -3.0044852e-05 0.00036401962 4.9760645e-05 -0.00016022914 -4.869947e-05
-0.0003396291 0.00035119124 0.000107730084 0.0002917417 0.00045020014 3.4179324e-05 -0.00028839413 6.283461e-05
-6.729509e-05 -5.7244255e-05 -0.0002038322 -0.00010309257 0.00032064764 0.0003404915 0.000362326 -0.00059529225
0.00029539454 -0.0003177794 -0.00042827587 -0.00038756113 -0.00024365766 -0.00017708016 0.00056957244 0.00039469393
0.00012702243 -0.00046055697 -0.0003870663 -0.00049143087 -0.00016009095 -0.0005138698 -0.00015241516 0.00013877968
-0.00054303353 0.00018906251 -4.210139e-05 -0.00015297445 -9.863979e-05 -0.00044355827 0.00035865078 0.00011965416
-0.00015375315 0.0003454996 -0.00023321192 -0.0005857704 -0.00051632756 -2.7561482e-05 -0.0003805941 0.0003721944
-0.0003766928 -0.00048410957 -0.00031532047 -1.21570865e-05 0.0006000393 -0.00037116965 -0.00049867615 9.828933e-05
-0.00014190718 0.00026786292 0.0003509806 0.00020467507 -0.00022957264 0.00055843015 0.00013437819 -0.00019071664
4.5118617e-05 -2.559388e-05 -0.00041036858 0.0003950116 0.00049979 -0.00021476287 0.0006800224 0.0003093054
-0.00030661526 0.0006113794 -0.00015632952 1.0450578e-05 0.00057002436 0.00032840934 0.00019734162 -0.00044773755
-0.00012761384 0.0004410895 -0.0004768814 0.0005538614 -0.00040105195 -0.00013288032 -0.0004956612 0.00014369914
0.00025619427 0.00016038478 -0.00034518875 -0.0005345634 -0.00035214107 -0.0005105318 0.00013274662 -0.0005183092
-0.00028798814 -0.00023923504 -0.0005050049 0.00041910712 0.0001627798 0.0005194226 -1.408546e-05 -0.00032268275
-0.00058419176 0.00047875603 -0.00040086103 -0.0002079029 -0.00014165754 0.0005251098 0.0004907489 0.0006306521
0.00062451337 -0.00016551763 0.00044522496 -0.00035862796 -0.00034475425 0.00030893224 0.00034553418 -0.0005084734
-0.00035038052 0.00021633714 0.0004244262 0.0005638079 5.417857e-05 -0.0004022284 0.00034116575 -0.00023478054
-0.00026748108 -1.8177958e-05 -0.00036938683 0.0004692052 0.0003896405 -0.0004860818 -0.00047778807 -0.0002599426
0.00014198261 -0.0004990397 0.00023512419 0.0003550517 6.839164e-05 -0.0002572985 -0.00029450137 8.4943786e-05
00000000: a792 d939 3623 f5b9 8cfa f738 b9eb f9b9
00000010: 7d27 c4b9 2e4d a5b9 bd3e 1fb9 1f8c 03b9
00000020: 1631 f4b9 c9e4 0fb9 ba2d ffb9 e395 f7b8
00000030: ae7a 87b9 f236 79b9 d3ed 5539 4db6 c5b9
00000040: 6b6a 72b7 e633 10b9 f69a 07ba 33ae 1239
00000050: d2f0 6238 76dd f638 3d89 acb9 e6fa 8bb9
00000060: 60bd 33b9 4e85 5439 7ae3 a6b9 1506 3739
00000070: 8132 8139 5edb 9e39 7856 14ba 1ff9 1339
00000080: c87d 10ba acc7 edb9 120d 04ba 6a62 a639
00000090: 1fc5 f137 7806 9db8 e757 b5b8 3172 9fb9
000000a0: 0f7a 0aba c172 d4b7 ea78 bb39 71ee 0439
000000b0: ab31 253a d628 fdb9 c43a e639 25cc 9638
000000c0: 3820 3bb8 ad59 8c39 2ca2 2639 2a3d 8f39
000000d0: 14b7 27b8 f7d5 103a cea0 7fb9 9d21 91b9
000000e0: c8a8 d7b8 7ab8 8cb9 e32d 1239 6b9c 4439
000000f0: f2da 0eba 51a9 d039 1118 bf39 0d03 c239
00000100: 5943 c639 9f50 8c39 a74d 99b9 f1eb c0b9
00000110: 1cfe b039 a606 d138 5936 aa39 3eb2 eb39
00000120: 07aa 6a39 13e3 3c39 d23d 033a 886e 5ab8
00000130: 2859 bfb8 182b 3339 154c 81b9 8ef1 033a
00000140: 9606 5eb9 a773 2eb8 482d 9bb9 26d4 94b7
00000150: 1b40 6439 6c31 c539 caa8 23b9 d0dd 99b9
00000160: 3815 f839 1281 b3b9 c0b9 c1b9 15a7 70b8
00000170: 9d2b d2b9 1182 be39 9ac7 8539 330d 0d3a
00000180: 31b7 b1b9 4800 32b8 01ea 2639 2659 2139
00000190: 9111 37b9 8cc5 053a b46a f139 2b66 b4b8
000001a0: 8c97 d839 4804 6839 53e2 ed39 d408 fcb7
000001b0: e3d9 be39 16b6 5038 2f03 28b9 a842 4cb8
000001c0: 3f10 b2b9 1720 b839 26ed e138 e8f4 9839
000001d0: d708 ec39 c55b 0f38 9b33 97b9 13c6 8338
000001e0: c720 8db8 8d19 70b8 cabb 55b9 6733 d8b8
000001f0: 991c a839 ff83 b239 93f6 bd39 630d 1cba
00000200: 2fdf 9a39 a19b a6b9 378a e0b9 9331 cbb9
00000210: 5b7e 7fb9 98ae 39b9 5c4f 153a ecee ce39
00000220: 5331 0539 e976 f1b9 29ef cab9 5ed3 00ba
00000230: 16de 27b9 38b5 06ba a2d1 1fb9 6385 1139
00000240: 5d5a 0eba 153f 4639 0696 30b8 c467 20b9
00000250: d6dc ceb8 628d e8b9 4b09 bc39 d7ee fa38
00000260: cc38 21b9 2c24 b539 598a 74b9 638e 19ba
00000270: 285a 07ba d533 e7b7 7a8a c7b9 1623 c339
00000280: da7e c5b9 16d0 fdb9 9951 a5b9 4af6 4bb7
00000290: f54b 1d3a 8c99 c2b9 97b9 02ba af20 ce38
000002a0: ebcc 14b9 f46f 8c39 d203 b839 0c9e 5639
000002b0: 70b9 70b9 9d63 123a dfe7 0c39 1cfb 47b9
000002c0: bf3d 3d38 70b2 d6b7 bd26 d7b9 8f19 cf39
000002d0: 5704 033a f831 61b9 8843 323a 452a a239
000002e0: 34c1 a0b9 fa44 203a 63ec 23b9 e454 2f37
000002f0: b06d 153a 5b2e ac39 7ded 4e39 51be eab9
00000300: 14d0 05b9 0842 e739 f005 fab9 0231 113a
00000310: 4844 d2b9 ca55 0bb9 43ef 01ba f2ad 1639
00000320: d051 8639 f62c 2839 73fa b4b9 f121 0cba
00000330: 939f b8b9 36d5 05ba e631 0b39 24df 07ba
00000340: 1dfd 96b9 2bdb 7ab9 4e62 04ba 9bbb db39
00000350: dfaf 2a39 dc29 083a 9750 6cb7 bf2d a9b9
00000360: 7224 19ba 8c01 fb39 a82a d2b9 8200 5ab9
00000370: e889 14b9 86a7 093a 9aa5 003a 5952 253a
00000380: 62b6 233a cd8e 2db9 156d e939 3b06 bcb9
00000390: 22c0 b4b9 2ff8 a139 d028 b539 124b 05ba
000003a0: 47b3 b7b9 8fd8 6239 8585 de39 82cc 133a
000003b0: cc3d 6338 2fe2 d2b9 7ede b239 6c2f 76b9
000003c0: b43c 8cb9 de7c 98b7 43aa c1b9 a8ff f539
000003d0: aa48 cc39 cbd8 feb9 a17f fab9 e848 88b9
000003e0: 2be1 1439 fdd1 02ba ab8b 7639 3c26 ba39
000003f0: 7b6d 8f38 05e6 86b9 4e67 9ab9 d923 b238
